experiments/verification/mnist/tmp/model.onnx (onnx, 399715 bytes, 8 tensors)

0.weight f4 [100, 784]
00000000: b004 673d 5077 833d 87e5 61bd 1a6d 9fbd
00000010: 78ec 773d 40fe 9d3d d6c3 74bd f230 013d
00000020: 3040 1ebd d054 d1bb a43f 023d 8002 86bd
00000030: 2983 8ebd 38c7 9abb 99e7 2abd e45d 6e3a
00000040: 00e5 19bb 8065 3a3b 8a86 923d 78d5 5dbc
00000050: f876 3e3c eae7 5fbd 6e60 f3bc b485 a43d
00000060: 1b0e 81bd 615a 9abd 00ec d9bc a460 7e3d
00000070: 7a26 a9bc 22db cabc 80f4 cc3c 58f2 3a3c
00000080: d7af 90bd 0bef 503d 3ea6 203d 08e0 cabb
00000090: a208 ce3c 892c 213c 96f9 8fbd b737 c23b
000000a0: 35ab 55bd bcc2 43bd 3de7 643d dab7 693c
000000b0: 9869 0fbc a09d 093d a818 833d 1585 c03c
000000c0: aa57 e1bd 319b 9dbd e609 9d3d 2ea0 563d
000000d0: fc30 6abd 25a1 38bd 58fe fcbc 548e 3c3d
000000e0: 006c 73bd 3f19 05bd c503 22bc a5e2 4b3d
000000f0: cb09 5fbd 4087 f23c 3345 b53c bee3 33bb
00000100: 5165 963d 5129 3d3c dac2 ea3d e457 3c3e
00000110: d2e0 713d a804 41bd 7a08 18bd 1fde 5dbc
00000120: 9a2d bebd 458a 6fbd d9f2 0f3e 8525 cf3d
00000130: 2fa8 e53d 6624 4b3d ff29 873d 917f 0d3d
00000140: b2e6 d73d 018c 2cbd 654d 47bd b845 08bc
00000150: c0a9 203d 5a74 9b3d f6a9 a33d e64b a43b
00000160: afd2 04bc 90fe c83d c490 bc3c 56a8 cb3d
00000170: b8ef b3bc 40dc c4bd e25b 16bd 2b26 673d
00000180: 530d 453d b456 afbd e0ea 21be 0a7c 0dbe
00000190: dfa3 36be 8b68 dcbd 9adf ad3c 8d6d c03c
000001a0: da98 c0bc a168 08be 048d 893a 5d28 8f3d
000001b0: 4530 ac3d 4aca 003e 5435 623e 0a7f 30bd
000001c0: 264c 0b3d 5db4 8c3c dfc6 663d cbc0 0e3e
000001d0: 6246 75ba 9294 ae3d cb10 97bd 45cf fbbd
000001e0: d49c 843d 55fa 673c 8f00 8d3d 4707 c0bd
000001f0: 28db cabd df8e 04be efcb 09be 972f a23d
00000200: e95a fd3d 3bad 083d 5598 71bd 6637 77bd
00000210: 0152 ebbc 90bb 46be 5261 35be 0f52 8bbd
00000220: 4652 a53b 8607 1e3e 3e2a 223e 2061 903d
00000230: 987e 0d3d 5041 a83d 051b 063e 9c94 f43d
00000240: d02b 0a3e 2666 c2bc 1548 03bd afd0 4e3b
00000250: 59b2 35bd b1e9 e9bd 1d3a fdbc 1c02 52bc
00000260: d01e bb3b c630 cebc 6059 383d 40fb 5e3a
00000270: a107 123e 8fcc 0d3e a67c e63c 0193 5e3d
00000280: cc97 ed3d 2160 413c 5956 883b 45bd 10bd
00000290: 3b88 0cbd 4143 b33a 1da5 483e 338c 093e
000002a0: bb70 43bd b3a9 443c 8259 3dbd 7403 9f3b
000002b0: 248d a9bb e428 67bd bc9d 12bb a2fe fc3c
000002c0: 0533 79bd d8a4 003e 8b1f d13d a324 e73d
000002d0: 6aac 383c 9274 6b3d 851a 613d cc12 cd3c
000002e0: b1d8 c23c b6e0 02bc bc85 0b3e 375a bc3d
000002f0: cb78 37bd f06a 8f3b 8302 9fbd 0f3c 1f3d
00000300: 860f 133e 816f a63d e5ea 483e 4631 773d
00000310: 09d2 bb3a 419c 023e bae6 9fbd e8c2 c0bd
00000320: f64c 213d 2bd3 ee3b cf99 633d e094 92bd
00000330: 9b9e cd3d b04e 373c 6c28 553d 3a2a 1f3d
00000340: 79f3 e63c 18ef d93d 3d56 c73d bae8 ce3d
00000350: 98e3 733d 3b9e 4a3d 3097 1d3e 311a 583d
00000360: 288a cc3c f0e1 3e3e 3695 023e d101 203e
00000370: e90a 89bd d2db d63d 864d 1d3e a5ab 97bc
00000380: 0909 76bb 5ee9 9a3d d138 c53b 4b25 273d
00000390: e358 883c 134a 3a3d 2f0e 99bd 1641 873d
000003a0: 4372 ac3d 54d5 ed3d 28b7 bc3d e811 7dbd
000003b0: 4d4d 813d 141c 0c3c 4696 c63d 7d6a 91bb
000003c0: ea01 493d a01d 1f3e 49d8 6a3d 5b6c f13d
000003d0: e0b6 4e3d 90be 633d 84cc 9b3e aff2 2f3e
000003e0: c4fa be3d 69f6 a13d 6b68 953d 4cd2 a33d
000003f0: c251 6ebd e5c1 ad3c da5e e63d a4a7 d0b9
0.056400955 0.064192414 -0.055150535 -0.07784481 0.06052825 0.0771451 -0.059757076 0.03154082
-0.038635433 -0.0063882843 0.031798974 -0.065434456 -0.069586106 -0.0047234558 -0.041724775 0.000909297
-0.0023482442 0.0028441846 0.071545675 -0.013539664 0.011625044 -0.05466453 -0.029709067 0.08033314
-0.063015185 -0.0753677 -0.026601791 0.062103882 -0.02064823 -0.024762694 0.02501893 0.011410318
-0.07064789 0.05100922 0.03922104 -0.0061912574 0.0251506 0.009837278 -0.070300266 0.005927052
-0.05216523 -0.047793135 0.05588459 0.014265025 -0.008753203 0.03359759 0.06401187 0.023500958
-0.11003049 -0.07695616 0.076679036 0.052398853 -0.05717562 -0.045075554 -0.030883 0.046034172
-0.05942917 -0.03249478 -0.009888594 0.049776692 -0.0544527 0.029605508 0.022127723 -0.0027448977
0.07343543 0.011545495 0.11462946 0.18392903 0.059052296 -0.04712358 -0.03711746 -0.013541727
-0.092860416 -0.058481473 0.14057483 0.10114578 0.11213719 0.04959526 0.06599807 0.034545485
0.105420485 -0.042125706 -0.048657794 -0.0083174035 0.039224386 0.07590552 0.07991402 0.0050139306
-0.0081068715 0.09814179 0.023018248 0.09944217 -0.021964893 -0.09612322 -0.03670872 0.056432884
0.04810841 -0.08561459 -0.15812254 -0.13816848 -0.1783595 -0.107621275 0.021224786 0.023489738
-0.023510385 -0.13321163 0.0010494296 0.069901206 0.08407644 0.12577167 0.22090656 -0.043089904
0.034008168 0.017175848 0.056342002 0.13940732 -0.0009356496 0.08524431 -0.0737625 -0.12295393
0.06475225 0.014158805 0.06884872 -0.09376388 -0.09905082 -0.12945126 -0.134567 0.07919233
0.12370855 0.03336833 -0.058983166 -0.060355566 -0.028725626 -0.19407487 -0.17712906 -0.06802761
0.005045208 0.15432557 0.15836427 0.07049775 0.034544557 0.08215582 0.13096245 0.119424075
0.13493276 -0.023730349 -0.032051165 0.003155749 -0.04435954 -0.11421526 -0.0309115 -0.012817886
0.0057104602 -0.025169741 0.04500711 0.0008506067 0.14260723 0.13847564 0.028135609 0.054339413
0.116012186 0.011802704 0.004160684 -0.03533675 -0.034309607 0.001367666 0.19594236 0.13432388
-0.04771493 0.01200335 -0.04622794 0.0048527066 -0.005174296 -0.05643548 -0.002237185 0.030883137
-0.06083967 0.12562883 0.102110945 0.11286285 0.0112715755 0.057484217 0.05495693 0.025033377
0.023784967 -0.007988146 0.13625234 0.091968946 -0.04479293 0.0043767616 -0.07764151 0.038875636
0.1436139 0.081267364 0.19620855 0.060349725 0.0014329563 0.12754919 -0.078076795 -0.094121754
0.039380036 0.007288357 0.055566605 -0.07157302 0.10040017 0.011188194 0.052040502 0.03885863
0.028192269 0.10641307 0.097332455 0.10102983 0.059543222 0.049467307 0.15389705 0.052759353
0.024968222 0.18640876 0.12752232 0.15625693 -0.06691534 0.10491146 0.15361604 -0.018514464
-0.0037542006 0.075640425 0.006018736 0.04080705 0.016643947 0.0454808 -0.074734084 0.06604211
0.08420231 0.11612955 0.09214622 -0.061784655 0.06313572 0.008551616 0.09696631 -0.004437743
0.04907409 0.15538645 0.05733517 0.11788245 0.050467372 0.055601656 0.3042947 0.1718242
0.093251735 0.07908327 0.07295307 0.07999095 -0.05818344 0.02121062 0.1124856 -0.00039797754

0.bias f4 [100]
00000000: a125 003d 4992 d33c 7651 21bd 8676 9dbc
00000010: e255 9e3d 1d0f 633d 9963 683d 3966 643d
00000020: 0a41 0e3e d8ba 203d 7c47 093e a26f d93c
00000030: ca44 bebd dbea 953c df60 0ebd 1202 923c
00000040: c44a 0fbd d745 113d 1c8d 783c 645f a7bb
00000050: d203 a73b c889 f13d cdbd cfbc a4b6 cc3c
00000060: 41d2 1cbc 2cc5 8cbd 40ab fbbd f0f5 9cbb
00000070: 6d94 dcbd ec0e 34bd e355 443b 146e 85bd
00000080: 23c9 a23d 113d 9cbc d6ea 1d3e 18cc 883d
00000090: 4b26 593d ab83 e63c 0b0f 483d 67c2 12bd
000000a0: 292a a53c 4caa 0c3d b3cd e63d 563c 85bd
000000b0: 63ab 66bd 547f 70bd 0472 a23c addd 0f3d
000000c0: 99be afbd ac1b c63a fbb9 eebc 3a33 32bc
000000d0: bfe4 8d3d 8338 57bc c060 903b b2f0 16bd
000000e0: 4d86 b83c 17bc bebc 88e3 3b3d aab0 23bc
000000f0: 188d d7ba 0be9 dd3c a27b 023e 8f19 0f3d
00000100: 1c32 643d 8d46 023a eec7 b03d a9d8 2dbc
00000110: a080 2bbc ecc6 dc3c 32c9 51bc 75ec 03bc
00000120: cb73 c23c 5a36 b2bd d0af 963d 64e5 9bbd
00000130: e2ea 4e3d 3acc 313d a0b7 c73d dbcd 93bd
00000140: f804 f13b 7c65 80bd 5ce7 c73d a973 a23c
00000150: faf0 eb3d 4d30 8cbc 89a4 b13b 4272 95bd
00000160: 4254 d43c 863e 22bd 2631 7d3d 84d2 e53c
00000170: 23f9 9a3d 004b 9abc ce8e 94bc 3a79 3d3b
00000180: 890c e13d 7c8f f23c 86d2 303d 9c31 a83d
0.031285886 0.02582659 -0.039384328 -0.019221555 0.077312246 0.055434335 0.05673561 0.05576155
0.13891998 0.039240688 0.13406175 0.026542488 -0.09290464 0.018300464 -0.034760352 0.017823253
-0.03498341 0.035466995 0.015170362 -0.005107807 0.005096891 0.11793858 -0.025359059 0.024989434
-0.009571613 -0.06873545 -0.12288523 -0.00479006 -0.107704975 -0.043959543 0.002995842 -0.06515136
0.0794852 -0.019072087 0.15421614 0.06679553 0.053015035 0.028138956 0.04884247 -0.035829928
0.020161705 0.034342095 0.11269703 -0.06505649 -0.05631579 -0.05871518 0.019829758 0.035123516
-0.085812755 0.0015114448 -0.029141417 -0.010876471 0.069283955 -0.013136032 0.0044060647 -0.03685064
0.022524977 -0.023283048 0.045871288 -0.00999085 -0.0016445247 0.027088663 0.12742475 0.034936484
0.05571185 0.00049696193 0.086318836 -0.010610738 -0.010467678 0.026950322 -0.012804316 -0.008051981
0.023736855 -0.08701773 0.07357752 -0.07612112 0.05051697 0.043407656 0.097518206 -0.07216998
0.0073553286 -0.062693566 0.09760925 0.019830542 0.11520572 -0.017112875 0.0054212254 -0.072971836
0.025919084 -0.03961041 0.06181445 0.028054483 0.0756705 -0.01883459 -0.0181345 0.0028911368
0.10988719 0.029609434 0.04316952 0.08212587

2.weight f4 [100, 100]
00000000: c4cf 8f3d 3782 1e3c d2db 1cbe 2dc5 f8bd
00000010: fd0a 5c3b 980c 80be b98c 3a3e 9b6f 61be
00000020: 8db2 d4bb b3bb 823d e308 193e b679 49be
00000030: 3385 9d3d 6914 efbc 070a 9dbd 8cb9 69bd
00000040: f5a7 743d 4f80 ee3d 60c3 d43c 6971 b7bc
00000050: 05a8 2b3e a199 4a3e fcde 2abe fa04 6f3d
00000060: d601 fc3d e714 3dbe fe59 93bd dbd0 3fbd
00000070: 42a6 653b 1a71 933c 5622 40be 9a15 a33d
00000080: 94fd 313d 3728 adbc 3308 8bbd c9a1 5abe
00000090: eb45 d0bd 7465 693e 59be d33d e542 4d3c
000000a0: 1098 9a3d 40d6 59be a8b4 8bbd 4cb0 95bc
000000b0: c728 2abe b723 2abe 5c47 8ebe d810 a13c
000000c0: 0bcc 53bd a4c3 fc3d 362f 083e 30a9 d3bd
000000d0: 7691 b23d 6da2 98bd b5d8 38be 1409 953d
000000e0: 0668 4ebc 05ad de3d 9e21 e53d d958 06bd
000000f0: f0e8 693e ec65 12be 8514 34be b530 7cbe
00000100: f1fd a5bc 2bea b5bc e9e5 d8bd d9b2 8fbe
00000110: 388c 123d 23d6 5abd 0c60 6d3d 5ccd 43be
00000120: 9b61 b23d 929d 41bd 6610 b8be 761c 84be
00000130: 4f75 afbd 6c5c 3e3e 487c 56be ff33 44bd
00000140: c8d7 343e 4c61 b63d 1e55 a03e 4886 18bc
00000150: e4bc 6abc 4215 3cbe c051 273e 1b7f 0bbe
00000160: 5351 383e e7b7 4e3e 5c79 973d 5b32 88bd
00000170: d126 f6bd 683a 2fbe a88a 01bd 44ab 083e
00000180: aa38 993d 8089 173e 19e2 d83d bbcf f83d
00000190: 259b d2bd daa5 3cbd 9391 023e ca96 43be
000001a0: b9ef 173e 09e6 31be 471c 2bbe 08b2 2ebd
000001b0: 4247 203c 9119 e6bc df90 2d3d 7e8d 07be
000001c0: bd8e acbd c95b 1d3e 8136 fc3d 2be4 fe3d
000001d0: c451 d5bd e77d 26be 2977 633d 17f9 933c
000001e0: 7565 2dbe 77d9 04be 31f2 36be a2a7 513e
000001f0: e8cd 053e ed3a 1c3d ab0b 7a3d d3ef 28be
00000200: 58a0 6b3b e321 2b3e 5078 36be 45aa e13d
00000210: f7d9 90bb 58c1 f4bd f34f 82bc 7b6e 873d
00000220: 57c6 91bb 168f d5bd df09 fd3d 5bca 213e
00000230: d4f5 0c3e 5523 cdbd 1e7f 7abd 016f b63d
00000240: d510 c63d bdfb 2a3e f5e9 babd 7ef2 63be
00000250: 8779 e93c 5e40 313e 49e1 103e 5ff7 1ebd
00000260: cb0d 653e d24a 80bd d240 5a3d 1749 e93d
00000270: fbde 453e 97bb c4bd e8ad 2cbe 1148 b5b9
00000280: 56ea dabb 773f bc3c f52a 7fbe 7ef6 1bbe
00000290: 886f efba 97fb c83c 12a8 0e3e 5060 29be
000002a0: 4a8a 093e 0e0c 9bbd c451 1f3d 8369 13bd
000002b0: fd8d 4cbd 8968 00be 68e9 013d beec bcbd
000002c0: 9951 9abd 604a debc b219 7ebc 4f3f a0bd
000002d0: a3fb 263c 70db 9abd 5058 67bd 47db d8be
000002e0: f118 753e c8b9 a0bd 56fa 123d 97e9 9f3d
000002f0: 3019 4cbd dd10 153e bb3e 383e 91c7 c7bd
00000300: f0bf 42be ccab c7be ae01 f6bd 95a7 3ebe
00000310: b211 35bc 46f7 123e 49b8 463e 1467 453c
00000320: 0d00 cc3c 1509 22bd b43d 923c ec47 c53e
00000330: 0108 3c3e 03dc 043e f735 6bbd 7635 ce3d
00000340: 5225 29be 1cc1 c03d 2b8e 423e c84a 19be
00000350: 8874 74bc 0c0c 1b3d d5a6 3f3e 5905 75be
00000360: ec1f 32be 59ea 923c 3a6c a9bd b33b 13be
00000370: 4cf5 14be 8e8e 6abd 2cb1 933c 1eca 3d3d
00000380: e4e0 08bc a2a8 4c3d eb5d a53d 6422 8dbe
00000390: 6109 f93d 1342 f63d ff5a e13d 5f02 ad3d
000003a0: a3ec c03d 5d45 9c3d 1dc0 8ebc cfee 0a3e
000003b0: d5c5 acbd 2bb7 593e d15e 873d b967 a4bd
000003c0: 651a 0b3e 49f1 edbd d3c2 29bc 50fd 81bd
000003d0: ffe8 4dbe 2b3e 56be 5abf c9bd 1daa fe3c
000003e0: 9260 393e 0868 0cbd 294d 0ebe eef7 503d
000003f0: 025e 13be e8a2 edbd b837 9dbe 135b 1f3c
0.0702205 0.0096746 -0.1531823 -0.12146983 0.0033575885 -0.25009608 0.18217744 -0.2201523
-0.0064910115 0.06383457 0.14944796 -0.19675335 0.07691421 -0.029184537 -0.07667928 -0.057061717
0.05973049 0.11645567 0.025972068 -0.022392945 0.16763313 0.19785167 -0.16686624 0.058354355
0.12305038 -0.18465005 -0.07194899 -0.04683004 0.0035041724 0.017998267 -0.18763098 0.079631045
0.04345472 -0.02113734 -0.06788673 -0.21350779 -0.10169586 0.22792608 0.1033904 0.012528156
0.07548535 -0.21273136 -0.06821567 -0.018272541 -0.16617118 -0.16615187 -0.27788818 0.019661352
-0.051708262 0.12342003 0.1329926 -0.10335004 0.08719151 -0.07452855 -0.18051417 0.07277122
-0.012598043 0.108728446 0.111880526 -0.032799575 0.22842765 -0.14296693 -0.17585953 -0.24627955
-0.02026269 -0.022206387 -0.10590727 -0.28066137 0.035778254 -0.053426873 0.057952926 -0.19121307
0.08710023 -0.04726941 -0.3595001 -0.25802964 -0.08567297 0.18589944 -0.20945847 -0.04790115
0.17660439 0.08905277 0.3131494 -0.009309359 -0.014327262 -0.18367484 0.16339779 -0.13622706
0.17999773 0.2018734 0.07396194 -0.066502295 -0.120191224 -0.17112124 -0.031626374 0.13346583
0.07481511 0.14798546 0.1059 0.121489964 -0.10283498 -0.046056606 0.12750845 -0.1910049
0.1483754 -0.17372908 -0.16710006 -0.042650253 0.009782614 -0.028088363 0.042374488 -0.13237569
-0.08425663 0.15367045 0.12315083 0.12445863 -0.10415986 -0.16258965 0.05553356 0.018063111
-0.16933234 -0.12973581 -0.17865826 0.20474103 0.13066828 0.038142134 0.061046284 -0.16497736
0.0035953727 0.16712146 -0.17819333 0.110188045 -0.0044205147 -0.1195094 -0.015907263 0.06612869
-0.004448693 -0.10427682 0.123553984 0.15799849 0.13765651 -0.10016505 -0.061156385 0.08907891
0.09671179 0.16697593 -0.09126655 -0.22260472 0.028500332 0.1730971 0.1414844 -0.03881013
0.22368543 -0.06264271 0.053284474 0.11390894 0.19323342 -0.096060924 -0.16863215 -0.00034576704
-0.006680767 0.022979481 -0.2491873 -0.15230748 -0.0018267492 0.02453403 0.13931301 -0.16540647
0.1343166 -0.075706586 0.038896337 -0.035989296 -0.049940098 -0.12539877 0.031716734 -0.092248425
-0.07535095 -0.027135074 -0.015509056 -0.07824575 0.010191831 -0.07561386 -0.056480706 -0.42354795
0.23935296 -0.07847935 0.03588327 0.078082256 -0.04982871 0.14557214 0.1799268 -0.09754861
-0.19018531 -0.38998258 -0.12012039 -0.18618615 -0.011051582 0.1435214 0.19406237 0.0120485015
0.024902368 -0.039559443 0.017851688 0.38531435 0.18362428 0.12974553 -0.05742451 0.100687906
-0.16518143 0.09411833 0.18999545 -0.14969933 -0.014920361 0.037853286 0.18715985 -0.23927821
-0.1739499 0.017934011 -0.08272596 -0.14378242 -0.14546698 -0.057264857 0.018028818 0.046335332
-0.008354399 0.04996551 0.08074554 -0.275653 0.12159992 0.120243214 0.11003684 0.08447718
0.09420135 0.076304175 -0.017425591 0.13567661 -0.08436171 0.2126128 0.06609882 -0.08027596
0.13584287 -0.11618287 -0.010361391 -0.06347144 -0.20108412 -0.20922153 -0.098509505 0.031086976
0.18103245 -0.0342789 -0.13896622 0.051017694 -0.1439133 -0.116033375 -0.30706573 0.009726304

2.bias f4 [100]
00000000: 8544 993d f561 a33d 15fa 28bd e3d2 073d
00000010: ad91 dcbb 3793 99bd 2e72 a2bd e40b 7b3d
00000020: b50d b63d e897 4fbc ad4b ea3c 6dbe 12bd
00000030: 8d4e 393d 779b 683c a114 acbd 74b4 853c
00000040: cf28 b93d 3ee6 97bd 44c7 c53d e27b e93b
00000050: e6e4 68bd 4429 c4bd 185a a13d fbd2 cb3d
00000060: 0c8a 40bd bedb 7d3d 25f2 0eba 9366 f9bc
00000070: f80a cf3d 059a 83bd 35df be3c 89d7 193d
00000080: debb e9bb c5e5 773d 5a8a 8cb8 1e25 823d
00000090: c7b2 9dbd 1db6 a13c 0e53 31bd 504a cb3c
000000a0: e4ac 063e f64e dcbc 08a9 44bd 94b8 3aba
000000b0: ef93 30bd defd 0abd 0f05 70ba 7685 1b3d
000000c0: b670 aa3c 21f2 3f3d f292 10be 1a5f d1bc
000000d0: ebc9 92bd 81ab 323c 016f da3c f759 88bb
000000e0: d571 2dbd 3a43 a73d aab7 003d 865a 7e3d
000000f0: f19c 0fbd 4447 91bc 641b 893a c61d ee3d
00000100: ab9d 2f3c f941 c93c a248 8639 eddb 893d
00000110: 5f81 95bd 0fda ac3d 7b0c a0bd e430 78b9
00000120: 2b93 623d c5af c0bc 8f03 fc3d 58ed 543c
00000130: d561 2f3c 37c6 133e e6ed d43c a627 eb3d
00000140: e888 63bd f6b1 93bc e125 6a3d 3e07 353e
00000150: d867 a53d 0078 4d3b d548 48bd c4bc 133e
00000160: 5384 19bd c715 0d3d 4966 1ebc 661e 42bc
00000170: 51a4 a23c 1475 fd3b 79f9 93bd f023 80bd
00000180: 60bc fc3d 211a ce3c 77da a93c aad9 ac3c
0.07483772 0.07977668 -0.04125412 0.0331601 -0.006731233 -0.07498782 -0.07931934 0.061290637
0.08889333 -0.012670495 0.028600538 -0.035826135 0.045240927 0.014197222 -0.08402372 0.016321398
0.09040987 -0.07416962 0.096571475 0.0071253637 -0.05685892 -0.09578183 0.07878512 0.09952351
-0.04700665 0.06197714 -0.00054529525 -0.030444419 0.10109514 -0.06425861 0.023299793 0.037559066
-0.007132991 0.06052186 -6.70149e-05 0.06354736 -0.07700115 0.019740159 -0.043292098 0.024815708
0.1315189 -0.02689312 -0.048012763 -0.0007122841 -0.04310983 -0.033933513 -0.0009156027 0.037969075
0.020805698 0.04686177 -0.14118555 -0.025558043 -0.07167419 0.0109051475 0.026664259 -0.0041611153
-0.042344887 0.08167119 0.031425156 0.06209805 -0.03506178 -0.017734177 0.0010460434 0.116267726
0.010718743 0.024567591 0.00025612587 0.06731401 -0.07300066 0.08440029 -0.078148805 -0.00023669336
0.05531613 -0.023521313 0.12305366 0.01299604 0.010704477 0.14431082 0.025992345 0.11482172
-0.055550486 -0.018029194 0.05716503 0.17678544 0.08076447 0.0031352043 -0.048897583 0.14427477
-0.03747971 0.034444597 -0.009667941 -0.011848068 0.019853743 0.007734904 -0.072253175 -0.062568545
0.12340617 0.025158944 0.020734055 0.021099884

4.weight f4 [100, 100]
00000000: 8b97 1ebd c2bf 98bd 3d37 1bbe bb4e b63d
00000010: 92a3 b53d 7f79 9abc d29f e23d 2b95 84bb
00000020: f4a1 12bd f39a 4c3d cbe4 febd 06e8 5f3e
00000030: 0568 82bd 3ed7 0f3e 36be 19be 0a59 95bb
00000040: ac50 ce3d 4c20 ca3d cc09 9a3d ff9e 9fbe
00000050: 1571 febd 9451 12bd 575a 143d 35c0 1b3e
00000060: 09a0 0abe 88d1 cb3d 2af5 c33d 35ff 243e
00000070: 6833 0e3d 8f68 bf3d ba4f c93d 782c f43d
00000080: fb03 b83c 1518 39be 3682 fcbc 0489 0b3e
00000090: 57da 993e a03c b8bd f9e8 8c3e 2b10 8f3d
000000a0: 25d7 bcbe 1925 273e fc7c 7a3a 4288 dcbc
000000b0: 4a42 6ebd 40c8 7fbe c8ea 8abe 79df 58bd
000000c0: d75d 8a3d b80a 493e d0d2 753b 56a5 5dbe
000000d0: 3f9d 95bd 5817 d9bd 6562 6c3e 139d 673e
000000e0: a226 843d 6047 55be 5288 82bd da64 0cbe
000000f0: e61d 003e 2750 893e 689a 783e 272b adbe
00000100: 32ca 313e 6477 633e 48f2 b1bd 58b2 38be
00000110: 714b 55bd e623 123d f76e 7c3d 8cd4 1d3e
00000120: 7dd7 8ebd 1565 21be c25d 85be a801 64bc
00000130: 2eb7 8abc 2b6c 753d a789 b3be a74c 403e
00000140: 3756 c7bc 8ac9 a5bd 9f88 4abe 4b39 01be
00000150: f42c afbd 284b 3a3e f4be b63d 70bc b0bd
00000160: 50bb abbd 56d1 10be 392b ec3d 2a0a 173e
00000170: 2da7 c63d fedf b1be 26ba 9ebc 299e 9cbd
00000180: 76f4 003e d5a3 903d 8806 37be 57bc 293e
00000190: e706 b43c 84f7 2b3e 8fcd 1abc b5a2 c1bd
000001a0: d2c0 debd 9c54 3a3e 7832 243e 8727 1ebc
000001b0: e006 08be 7259 553c 3e4e aa3d db19 bd3d
000001c0: 2608 a0bd fb07 363d 95b4 803e b6eb 423e
000001d0: 1055 31be 3616 a2bd a74c cd3d f970 903d
000001e0: 2c08 683e cde2 c33c 9816 86bd a6d2 a1bd
000001f0: 3f38 d2ba 87a1 cb3c 3760 753e 00eb a73c
00000200: f820 b23b 0cef 91bd 4d44 143e f2ca ae3c
00000210: b9b2 01bd f8aa c8bc 4a36 d83d 6cae cbbb
00000220: 78dc 53be d026 97be c46e 40be 66cb 4b3e
00000230: dffb 69bc 63dd 10bc 8977 6abe 9f4e 0fbe
00000240: 8c9d 693e 3b09 763d 94b5 da3d 2d4c 0abe
00000250: 2407 76bc 9026 ce3d 00cf 683d 9068 463d
00000260: 4e78 90bc d30c c13c 7a4d 373d 5186 bfbc
00000270: fde0 bc3c 5ae8 c03d cf5c 09be f838 843e
00000280: 572a bb3d 4d88 a6bd cc50 1ebc 827f 623e
00000290: a320 0fbe 7877 0d3e b041 37be 08fd 17be
000002a0: 9aff aa3d 5d6b 2e3e 3d36 033e 6fcb 60be
000002b0: 6ccb 82bd ace8 093e b81f 703c ee69 b1be
000002c0: 98f8 79be 2c74 99bc d86f 1f3e 368d b33d
000002d0: 3c27 c43d a7fe ebbd e957 953d a04d 1abe
000002e0: 33ac 49be 2fa7 2bbe 6d56 90bc e06d fdbd
000002f0: 01e0 3bbe 5106 fc3d e105 16be 01eb c3bd
00000300: 1770 6f3d f5ca fcbd 3096 cb3c 5331 49bc
00000310: e6ef 0abe 97b9 153b 5715 893e a19c 2a3d
00000320: 88d4 31be 0d27 afbd 6231 ac3d e404 fc3b
00000330: efd1 b43e da25 803c 21c4 383e 754a 1a3d
00000340: 7022 3bbb ccd0 d8bc d602 be3d 79ae 1f3c
00000350: 5650 903c 6222 143d 3598 0cbe f9ff a5bd
00000360: cfe3 5c3c 7fb4 093d c179 0dbe baa5 573c
00000370: a675 3bbd 7a74 873e f637 8dbd ed88 093e
00000380: f555 123e f0ab ec3d 394e 193e 92d8 fcbd
00000390: 4cf7 9bbe 2741 853d d2c9 d7bd 98fe fcbd
000003a0: 25e6 17bd 0a40 663e 6593 ac3c 3a26 423c
000003b0: 2ce4 94bd 9b41 87be 095b 4ebe 1501 43bd
000003c0: 914f f1bd 77f3 d53d 4d0d d13d 28d4 af3c
000003d0: 2f99 84bd 9c4f f93d 0d25 8bbe 8d9d 0b3e
000003e0: 4ce8 92bd 92f6 e6bc 3919 58bd 44be 79bd
000003f0: 4d23 873d c5b1 94bc c291 013c e27c b13d
-0.03871874 -0.0745845 -0.1515779 0.089017354 0.08869089 -0.018856762 0.110656396 -0.0040461025
-0.03579898 0.04995246 -0.124459825 0.21865854 -0.063674964 0.14046952 -0.15013966 -0.0045577334
0.10073981 0.098694414 0.075214 -0.31175992 -0.124239124 -0.03572233 0.036218967 0.1521004
-0.13537611 0.09952074 0.09568246 0.16112979 0.034716994 0.09346115 0.0982966 0.11922544
0.022462836 -0.18075593 -0.030823808 0.13626486 0.30049393 -0.08995938 0.27521494 0.06985506
-0.36882892 0.16322745 0.0009555367 -0.026920442 -0.058168687 -0.24978733 -0.2713225 -0.052947495
0.0675618 0.19632995 0.0037509687 -0.21645102 -0.07305383 -0.106001556 0.2308441 0.22618513
0.06452681 -0.20828009 -0.06373657 -0.13710347 0.12511405 0.26818964 0.24277651 -0.33821985
0.17362288 0.22213513 -0.086887896 -0.18036783 -0.0520739 0.035678767 0.06162926 0.15413111
-0.06974695 -0.15761216 -0.26048094 -0.0139164105 -0.01693305 0.05991761 -0.35065958 0.1877924
-0.024333103 -0.08095081 -0.1977868 -0.12619512 -0.08553496 0.18192732 0.0892314 -0.086296916
-0.083853364 -0.14142355 0.115316816 0.14749971 0.09699855 -0.34741205 -0.019375872 -0.07647354
0.12593254 0.070624985 -0.17873585 0.16575752 0.021975948 0.16793638 -0.009448423 -0.09454862
-0.10876621 0.18196338 0.16034877 -0.009652979 -0.13283873 0.013021814 0.08315705 0.09233447
-0.07814054 0.044441205 0.25137773 0.19035229 -0.17317605 -0.07914393 0.10024386 0.07052798
0.22659367 0.023911858 -0.06547278 -0.07901506 -0.0016038491 0.024857296 0.23962484 0.020497799
0.005436059 -0.07125673 0.1447918 0.021337006 -0.031664584 -0.024495587 0.1055723 -0.006215861
-0.20689571 -0.295218 -0.18792254 0.19901809 -0.014281242 -0.008841845 -0.22897162 -0.13994835
0.22814006 0.060067397 0.106791645 -0.13505621 -0.015016351 0.10065949 0.056838036 0.048439562
-0.01763549 0.023565685 0.04475162 -0.023379477 0.023056502 0.094193175 -0.1341431 0.25824714
0.09138935 -0.08131466 -0.009662818 0.22118953 -0.13977294 0.13815105 -0.17896152 -0.14842618
0.083495334 0.17033143 0.12813659 -0.21952604 -0.06386456 0.13467664 0.014656 -0.3465113
-0.24411237 -0.018732153 0.15570009 0.08767168 0.09577796 -0.115231805 0.07292158 -0.15068674
-0.19694595 -0.16762994 -0.017619336 -0.123744726 -0.1834717 0.12305892 -0.1465068 -0.09566308
0.058456507 -0.123433985 0.024851888 -0.012279826 -0.13568076 0.0022846216 0.26774094 0.04165328
-0.1736623 -0.0855237 0.084078565 0.0076910127 0.35316417 0.015643049 0.18043567 0.037668664
-0.0028554462 -0.02646675 0.09277885 0.009746187 0.017616432 0.036165603 -0.13729937 -0.081054635
0.013482048 0.0336194 -0.13815977 0.013162071 -0.045766495 0.26456052 -0.06895439 0.1343114
0.14290603 0.11556232 0.14971246 -0.12345995 -0.3046211 0.065065674 -0.10536541 -0.123532474
-0.037084717 0.22485366 0.021066377 0.011849934 -0.07270083 -0.2641724 -0.20151915 -0.047608454
-0.11782754 0.10446828 0.10207615 0.021463469 -0.0647453 0.121733874 -0.27176705 0.1363432
-0.07173213 -0.028193746 -0.05275843 -0.060972467 0.0659853 -0.018151173 0.0079082865 0.08666398

4.bias f4 [100]
00000000: 9534 02bd b21c b23d f8ff a1bc dc85 e33d
00000010: d442 debd 3fef 143e 08ab 69bd be81 5a3d
00000020: 80a8 93ba ec81 bc3d bd85 0b3d 44d2 a83c
00000030: 9243 4c3d 63dd 81bd 76fd 863d 9593 d3bc
00000040: 306f 963d 2b9b 203d ae89 ceba 3430 00bd
00000050: fde7 143d 17bd 223d a395 693d 6111 523d
00000060: 15c0 233c 1ed8 c13d a08f 2cbd b030 073d
00000070: 8b44 503d 8ee2 a23d 8d8a 8fbc f331 203d
00000080: 5816 023e 5721 aebc 68cb 4e3c 2049 213e
00000090: b9fc 08bc 132e ac3d 1c61 3c3d c3ee 0abd
000000a0: f3ed b03c 7968 853d e39a 2b3c 9980 9c3a
000000b0: 0e86 85bd 9832 8e3c d03c 8b3d 2f63 84bc
000000c0: b0b7 c5bd df27 823d c19a 95bc 1315 dabd
000000d0: 4fde 8ebd 8f51 043e 3100 8d3d 6c72 b33d
000000e0: ceac 04bc 59d7 963d 3499 653d f3b4 433d
000000f0: a363 daba bc5c 92ba dcef 67bd d1c9 6f3d
00000100: f680 d53c 898e a6bd 1903 5abc 392c 1b3c
00000110: e6f4 073c 2cba 81bd d749 97bd a8ec 91bc
00000120: 7d2f 97bd c3ff 813d 6d00 f4bc 8d49 453d
00000130: 1b8e f63d 0353 35bd 2663 493d b0b4 2b3d
00000140: 3dd5 083c 3ff6 c33d c390 d53d 5f02 0e3e
00000150: 1bf1 663d 8d69 803d 066d a23b dd2c 013e
00000160: 8ebe 1abd fccd 02bb 30f7 543d 6f86 6abd
00000170: 44a0 6ebd 915a 98bc 941d 853d bf6f 4fbc
00000180: ed6d a73c 5631 e63c 2d12 9a3d c856 063d
-0.031788427 0.086968794 -0.019775376 0.11109516 -0.1085259 0.1454439 -0.057047874 0.053346388
-0.0011265427 0.09204468 0.03406309 0.020608075 0.049869128 -0.06341054 0.065913126 -0.025827209
0.07345426 0.03921048 -0.0015757584 -0.03129597 0.036354054 0.03973111 0.05702747 0.051286105
0.009994526 0.09465049 -0.04212916 0.033005416 0.050846618 0.07953368 -0.01752212 0.039110135
0.12703836 -0.021256132 0.012621738 0.15750551 -0.008361035 0.084072255 0.04599105 -0.033919107
0.021597838 0.06514067 0.01047394 0.001194018 -0.065197095 0.01735811 0.067987084 -0.016160576
-0.09654176 0.06355261 -0.018262269 -0.10648551 -0.06975996 0.12921737 0.06884802 0.087620586
-0.0080978405 0.07365293 0.05605431 0.04777999 -0.0016661774 -0.0011166553 -0.056625232 0.058542076
0.02606247 -0.08132655 -0.013306403 0.009470993 0.008298134 -0.063343376 -0.07387131 -0.017813042
-0.073821045 0.06347611 -0.02978536 0.048165847 0.12038823 -0.04426862 0.04916682 0.041920364
0.008351621 0.09568452 0.10428002 0.13868092 0.05638228 0.06270132 0.0049568443 0.1261477
-0.037779383 -0.0019959202 0.05199355 -0.057257112 -0.05825831 -0.018597873 0.06499782 -0.01266092
0.020438159 0.028099697 0.07522998 0.032797605

6.weight f4 [10, 100]
00000000: 8881 06be 32d2 3e3e c7e6 c1be e534 d1bd
00000010: c699 023e 8a62 93bd 79ab 433e 92c3 d33d
00000020: 8146 d93d 0156 59be 5d20 043e 4307 d13d
00000030: 85a8 f8bc 0a8d f6bd 70cb 723e 5734 02bd
00000040: c7cd 403b 4ec4 d6be 9dc8 15bc 1d53 72bc
00000050: e946 753e c482 5abe 1c4c f8ba 52fc 15be
00000060: caab 803d ac5d a4be 8169 d1bd 7626 acbe
00000070: b1d0 c93d b72e edbd 689f 08be e6c8 b9be
00000080: 9949 50be 335c 5ebe d7ca 873d d1d5 9abe
00000090: ecd0 2a3d 273d c7bd 4fa3 68be b0ad 353e
000000a0: 7a9a 33bd 342a 023d 94ac 1e3e 8f6e 4e3d
000000b0: 28fe 08be d183 a8bd 2563 913d a0c7 fbbd
000000c0: 8782 0dbe 335c 373d 9160 77bd bc7e 0a3e
000000d0: b424 8b3e a8fc 623e a3c0 3f3e f1e1 f83d
000000e0: e666 dabc 4e2d 1dbe fc69 7dbe 65a8 25be
000000f0: ae46 4cbe fb09 163c 0683 483e 21eb 89be
00000100: 2cd5 fabd 00b0 2bbe 9e6a d0be 407d 95be
00000110: 6f7e f2bb 77c5 05bf 8e8a 64bb 7a7c 1f3e
00000120: 15c0 e83d 5990 3b3e 921d f93d 73d2 063d
00000130: 8e8a bdbc 49a1 103e 2851 acbd b919 8b3e
00000140: 8370 a03c 944b 24be 0534 2d3e 8702 77be
00000150: 455a 89be 6c44 87be ca7d bdbd c407 81bd
00000160: 7cc6 463e 540e 58be 8a05 d3be 85e6 ddbc
00000170: c2af 70be 0c47 a23e 10df 17be f81e 74be
00000180: d3a8 2f3d 529c 893e b3ed 383e 4861 0c3e
00000190: c2be 623e c051 73be df36 0dbe f842 43bc
000001a0: 98a5 8e3d 8038 3dbe 9b07 9cbd a87e c6bd
000001b0: 6e58 abbe 05d9 633e 43aa 323d 63b5 13bf
000001c0: bbde b8bd a02a 22be 57ed 1bbe 3b97 6a3e
000001d0: 50d4 b8bd 7e75 143e 3524 86be 68fc 933e
000001e0: 5bae 253d 68c7 9e3e 1364 47be 770f 093e
000001f0: d1e3 96be 0417 c8be 9e64 c0be f830 86be
00000200: 9e12 4cbe 12c0 92bd bd9a 71be 7998 98be
00000210: 626d c83d 8372 74bd 9e47 ddbc a1f5 e3be
00000220: bd4b 03be b29e 49be 5099 703e 9972 7bbe
00000230: 78ce 67be 781b 593d 96cd b83d 5631 713d
00000240: 911f 39be 3a59 72be d3ab 2ebe a5f9 09be
00000250: 2a8f 9e3e 2f81 093d 461a 393e f73c afbd
00000260: e13b 08be 2e62 1d3e e6b5 ce3d f3b1 0e3e
00000270: 9fef fcbc 0bc5 51be c5ae 063e 3649 293e
00000280: 6c3f 2c3e 1fea 65be 416d 6f3e 9eff 033e
00000290: 4eb4 5ebe f1e5 84bd af92 1c3e 085c 873e
000002a0: e733 35be a264 44be c98c a9bd c159 593e
000002b0: 5fd3 733e 750b b4bd 62ad 8f3e 4d00 53be
000002c0: d66b 84be bad3 5fbd 1b27 83be 9ed6 683e
000002d0: 9338 87bd 1fd0 5cbe 32ff 19bd 92d4 6ebe
000002e0: 68cb f1bd a7b6 c93d 5814 7f3d b399 f83c
000002f0: 22a0 373e 6d00 8f3e 1417 c53d d54d 153d
00000300: d4ec d9bd 9bb0 3b3d 0b6d 7cbe 12e4 5e3e
00000310: dcf1 093e 4abb 0cbf 83e3 e8be 6a06 493b
00000320: 2be1 b0be 7f07 a43d 0532 293e cb94 60be
00000330: 61e0 1fbc 37ef 393e 7e4f 86bd 68d4 bcbe
00000340: 9f1f 8c3e 118e a33d 924d 53be d316 7f3d
00000350: 6d3b 54be 3610 263e d5c0 e33d 159b 3b3e
00000360: f51a c0bc 9410 a3be c7c5 adbd 8964 aa3d
00000370: 81fd 383e e0fa 06be 03e9 673e dbc5 133e
00000380: b71a e43d 2238 7bbd d54a 8ebd 714a 5cbd
00000390: 002a 893e 82ad 183e 3ddf 5b3e b4ff 69be
000003a0: bc23 81be 1f11 c0bd 4cce 67be 30c2 b13d
000003b0: 148a c9bc 6dba 7cbd a42b 143e 9aaa a4be
000003c0: 0cf7 c2bd 49e4 723e 4b19 6dbd fadd 483e
000003d0: d75a eabd edf8 7c3e a0c7 803e 1f27 5a3c
000003e0: fd2d 353e ee57 0cbe d4f9 583e f8dd 40be
000003f0: 19ff 32be 7534 43be 0b87 53be 501c 46bd
-0.1313535 0.1863487 -0.37871382 -0.10215167 0.12753972 -0.07196529 0.1910838 0.103400365
0.10609151 -0.21224214 0.1290297 0.10206463 -0.030353794 -0.1203862 0.23710418 -0.031788196
0.0029419528 -0.41946644 -0.009142068 -0.014790324 0.23952831 -0.21338946 -0.0018943581 -0.14647034
0.06282766 -0.32102716 -0.102252014 -0.33623093 0.09854258 -0.11581176 -0.13342059 -0.36286086
-0.20340575 -0.21714859 0.066304855 -0.30241254 0.04170315 -0.09728461 -0.22718547 0.17742038
-0.043848492 0.03177853 0.15495521 0.050398406 -0.13378203 -0.08228267 0.070989884 -0.12293935
-0.13819323 0.044765662 -0.060394827 0.13524908 0.2717644 0.22166693 0.18725829 0.1215247
-0.026660394 -0.15349314 -0.24747461 -0.16177519 -0.19948837 0.009157653 0.19581231 -0.26937202
-0.122476906 -0.16766357 -0.40706342 -0.2919712 -0.007400326 -0.5225443 -0.0034872624 0.15574828
0.11364762 0.18316783 0.12163843 0.032915544 -0.023137357 0.14124025 -0.08413917 0.27168062
0.0195849 -0.16044456 0.16914375 -0.24122058 -0.26826683 -0.2641939 -0.09252508 -0.06300309
0.19411653 -0.21099216 -0.41215163 -0.02708746 -0.23504546 0.3169483 -0.14831185 -0.23839939
0.042885613 0.26877075 0.18059425 0.13708985 0.22143081 -0.23761654 -0.13790463 -0.011917822
0.06965178 -0.18478584 -0.07618638 -0.096921265 -0.33465904 0.22250755 0.043619405 -0.5769865
-0.090268575 -0.15836573 -0.15227257 0.22909252 -0.090248704 0.14497945 -0.261995 0.28903508
0.04044948 0.3101151 -0.19471769 0.13384806 -0.29470685 -0.3908006 -0.37576765 -0.26209235
-0.19928977 -0.07165541 -0.23594184 -0.29803827 0.09786488 -0.05967952 -0.027011689 -0.44523337
-0.1282186 -0.19689444 0.23495984 -0.24555434 -0.22637355 0.053004712 0.090235874 0.05888494
-0.18078448 -0.2366685 -0.17057733 -0.13474138 0.309686 0.033570465 0.18076429 -0.0855655
-0.13304092 0.15369484 0.10093288 0.1393507 -0.030875979 -0.20485322 0.13152607 0.16531834
0.16821069 -0.22452591 0.23381521 0.12890479 -0.21748468 -0.0648917 0.1529033 0.26437402
-0.1769558 -0.19179013 -0.08278806 0.21225645 0.238111 -0.08791248 0.28061968 -0.20605583
-0.25863522 -0.054645278 -0.25615773 0.2273812 -0.066025876 -0.21563767 -0.03759689 -0.23323277
-0.11806375 0.09849291 0.06227526 0.030346727 0.1793218 0.27930012 0.096235424 0.03645118
-0.106408745 0.04582272 -0.24650972 0.2176669 0.13471168 -0.5497328 -0.45486078 0.003067399
-0.3454679 0.08009242 0.16522987 -0.2193176 -0.009758086 0.1815766 -0.06558131 -0.36880803
0.27367875 0.079860814 -0.2063506 0.062277626 -0.20725794 0.16217121 0.11120764 0.18320878
-0.023450354 -0.31848586 -0.08484989 0.08319957 0.18065454 -0.13181639 0.2264748 0.14430945
0.11137908 -0.06133283 -0.06947867 -0.05378193 0.26789856 0.14909938 0.21471877 -0.22851449
-0.25222576 -0.093782656 -0.2263729 0.086796165 -0.024601974 -0.061701227 0.14469773 -0.3216141
-0.09519777 0.23719896 -0.05788545 0.19615927 -0.114431076 0.24704333 0.25152302 0.013314991
0.17693324 -0.13705418 0.21189052 -0.18834674 -0.17480125 -0.1906298 -0.20656984 -0.048366845

6.bias f4 [10]
00000000: 70a1 acbd c8d0 a0bd 450d 193d 7e2b 43bd
00000010: 00ba 98bc c794 293d 25a9 44bd a554 5bbd
00000020: 0eb9 193e 1fa9 153c
-0.08429229 -0.07852322 0.03736617 -0.0476489 -0.01864338 0.04140165 -0.04801287 -0.05354752
0.15011999 0.00913456
