experiments/playground/tmp/model.onnx (onnx, 480948 bytes, 12 tensors)

0.weight f4 [100, 784]
000000 0a d3 cf bc a0 db f1 3b cc 53 5b bd 60 01 c9 bc
       -0.025369186 0.0073809177 -0.05354671 -0.024536788
000010 39 06 15 bd 0a db 7f bd 08 60 7e 3c b0 12 af 3c
       -0.036382888 -0.06246475 0.015525825 0.021371216
000020 b8 86 69 3d 43 4d 8b bd 38 4d 2b bd 3a b2 de bc
       0.057013243 -0.06801846 -0.04182169 -0.027184594
000030 9e 65 14 3c 9c b2 f7 3d 58 17 26 3d 54 79 8f 3c
       0.009057431 0.12094614 0.040549606 0.017513908
000040 cc 8e 53 3d ac 59 42 bd e4 e5 b3 3c e8 c2 6a 3d
       0.051649854 -0.0474488 0.021960206 0.057314783
000050 c8 ed aa 3c 47 d2 3e bd f0 5a 72 bd 80 4d 50 bc
       0.020865336 -0.046587255 -0.059168756 -0.01271379
000060 0c 4e a8 bc 3e 8a 8e bd 00 b5 c5 ba 10 96 82 3d
       -0.020545028 -0.06959961 -0.001508385 0.063762784
000070 e6 31 a1 bd bc 68 a1 3d 92 79 90 3d de ee 9b 3d
       -0.078708455 0.078813046 0.07054438 0.0761392
000080 8d 53 61 3c b8 e1 24 bc 7c d6 f5 3d c1 3d 00 3d
       0.01375283 -0.010063581 0.120038 0.031308893
000090 88 89 4e 3d 07 1b 9e bc c6 ac fa 3d b2 1c 7b 3d
       0.05042413 -0.019299997 0.12239985 0.061306663
0000a0 1d 15 d0 3d 08 c7 89 3d d0 e2 22 3c 53 fc 20 3d
       0.10160277 0.06727415 0.009941772 0.039303135
0000b0 b0 38 1d 3e a5 08 fa 3d 61 95 13 3e e6 5b 26 3e
       0.15353656 0.1220868 0.14412452 0.16245994
0000c0 05 cc 79 3d 6b 68 b7 3d bb c7 b8 3d 70 53 b9 3c
       0.060985584 0.08955463 0.090224706 0.022622794
0000d0 7c 31 e7 3c d0 57 86 bc ec 46 12 3d 24 c8 a1 bd
       0.028221838 -0.016399294 0.035712168 -0.07899502
0000e0 04 9b 17 bd e0 75 df bb 78 53 28 3d 08 01 6e 3d
       -0.03701307 -0.0068194717 0.041095227 0.058106452
0000f0 87 ea a7 3d 36 9a 8d 3c 67 aa 61 bb 80 3d 13 3d
       0.081990294 0.017285448 -0.0034433843 0.035947323
000100 e4 a4 d7 3d ea 3d 4b 3d 94 b8 c8 3d d2 99 25 3e
       0.10529497 0.049619593 0.098008305 0.16171959
000110 cc eb 86 3d d8 40 61 3c f5 6b 98 bc ab 80 16 3e
       0.065879434 0.01374837 -0.018606165 0.1469752
000120 ed 71 ee 3d 69 3a 4a bb 89 89 78 3d ee e8 c5 3d
       0.11642823 -0.003085757 0.06067804 0.096635684
000130 6b bc c5 3d ab 86 85 3d 57 52 1c 3e 72 81 74 3d
       0.096550785 0.065198265 0.15265785 0.05969376
000140 7a 4e 03 3e bc 06 5f bd b4 00 90 3d f8 76 32 3d
       0.12822905 -0.05444978 0.07031384 0.04357049
000150 2e 19 89 3d d0 df f5 3c e0 4f d1 bd fc 74 29 3c
       0.06694256 0.030013949 -0.10220313 0.010342833
000160 ee ea 83 3d 1a 0c 76 bc 60 62 a6 3d bf 8b 1e 3d
       0.06441294 -0.015017534 0.08124232 0.03870749
000170 c0 0a 4d bd 4d d8 f7 bd d4 83 e9 3c 6d c7 1a 3e
       -0.05005908 -0.12101803 0.028505243 0.15115137
000180 d1 24 49 bd b1 8a 20 3c 62 2a b1 3d 97 b3 f0 3a
       -0.049107376 0.009798692 0.08650662 0.0018364069
000190 f8 5f 13 3c ec 97 af bb 69 28 90 bd 8f 83 2f 3c
       0.008995049 -0.0053586867 -0.070389576 0.010712518
0001a0 75 d5 d2 bd 34 b5 82 3d 1c 40 94 bd 6d e1 4d bc
       -0.1029462 0.06382218 -0.072387904 -0.012565953
0001b0 72 bd 1a 3d c9 97 d0 bd e7 1f d8 bc b0 76 64 3c
       0.037778325 -0.10185201 -0.0263824 0.013944313
0001c0 6e 5f 03 3d ce 94 a1 bd 0f 45 be bd 9b cc 01 3d
       0.03207343 -0.0788971 -0.09290516 0.031689268
0001d0 10 64 a0 bc 51 31 1f be 41 2c 1e bd 32 4c ce bd
       -0.019578964 -0.15546156 -0.038616423 -0.10073127
0001e0 85 90 b7 bc bf 3a 9a bc 89 00 8b bd da 95 02 3c
       -0.02240778 -0.01882684 -0.067872114 0.007970298
0001f0 51 c4 a2 bd 68 16 44 bd ae 7c 88 bc 93 94 50 bd
       -0.07947601 -0.04787293 -0.016661014 -0.05092294
000200 9a 72 69 3c 78 db ee bc 1d fa 5e 3c 85 f6 e5 3d
       0.014248515 -0.029157385 0.013609436 0.112286605
000210 59 78 9b 3d 21 bf 08 3d 69 30 a9 bd 35 fd 4f be
       0.07591314 0.0333854 -0.08261187 -0.20311435
000220 63 1d 48 be 9b a4 3b be bf 33 10 be c0 ed 90 3c
       -0.1954246 -0.18324511 -0.1408224 0.017691493
000230 a0 ca 3a 3c 94 32 0a 3d 27 16 09 3b 85 61 49 bd
       0.011400849 0.03373964 0.0020917745 -0.049165267
000240 c9 d9 b0 bd ea 0a 38 be a3 f4 1c bd 26 d6 25 bd
       -0.08635289 -0.17972913 -0.03831924 -0.04048743
000250 d5 85 11 3e 02 14 a0 3d 5b 5b c6 3d f4 57 5f bd
       0.14211209 0.07816316 0.096853934 -0.054527238
000260 82 ae 86 bd 10 e1 91 3d 8c 6b 8a 3d 30 27 e1 3d
       -0.065762535 0.071230054 0.06758794 0.109938025
000270 d0 16 ed bc 9e ab bb 3d a3 99 dc 3d 27 e7 88 3d
       -0.028941542 0.09163593 0.107714914 0.06684714
000280 c4 25 5e bc 98 3a 6b 3c d9 9d 7f bd 17 f8 8c bd
       -0.013558809 0.014357232 -0.062406395 -0.06883257
000290 70 9e 37 be 90 e2 12 be 0c c6 cd bd 76 10 a0 bd
       -0.17931533 -0.14344239 -0.1004754 -0.0781564
0002a0 9d 6f 66 bd ee 1f 7b bc 4a 89 c7 3d f3 a9 01 be
       -0.056258786 -0.015327437 0.09742983 -0.12662487
0002b0 ce 71 17 be 26 fe 2b bd 77 f8 cf bd b3 42 40 3d
       -0.14789507 -0.04199042 -0.10154813 0.04693861
0002c0 92 2a 19 3c 52 bf 03 be 72 97 06 be 39 fe eb bd
       0.009348528 -0.12865952 -0.1314371 -0.115230985
0002d0 35 53 1e bd bd b5 6f bd 12 a6 f0 3d 1b b2 ac 3d
       -0.03865357 -0.05852293 0.117504254 0.084324084
0002e0 38 6c 4a 3d e2 72 45 3d 28 01 ac 3d 89 4e 8b 3c
       0.04941961 0.048205264 0.08398658 0.017005222
0002f0 53 6e 82 bd af d9 29 be a1 87 4d 3d c2 ca d5 bd
       -0.06368699 -0.16586946 0.050178174 -0.104390636
000300 70 3a e9 bd 27 21 a7 bd a8 4e 41 bd 71 22 b3 3d
       -0.11388099 -0.0816062 -0.047194153 0.087468036
000310 18 5d f0 bc a2 9a d1 ba 7c bf 0a 3e 73 06 e9 bc
       -0.029341266 -0.0015991519 0.13549608 -0.028445458
000320 c5 b2 91 bb c9 ab e4 bd ef 7c 06 bd 08 6f c4 3d
       -0.00444636 -0.11165578 -0.03283399 0.0959149
000330 94 3c aa bd 98 8d 34 bd f7 a2 dd bd ac 8e 49 bd
       -0.083123356 -0.044080347 -0.10822099 -0.049208328
000340 01 54 58 3c 40 62 ca 3c 00 76 30 3d a3 1e b1 3d
       0.013203622 0.024705052 0.043081284 0.086484216
000350 4f f4 e0 3d 11 4c 0b 3e 8d 05 a5 3d 29 c7 02 3d
       0.10984098 0.13603236 0.08057699 0.031928215
000360 01 7a d2 bd 4f 62 61 bd 78 5c b8 bd 9f ce 67 be
       -0.10277177 -0.055025395 -0.09002012 -0.22637413
000370 96 b3 3e bc 46 b4 b4 3c 7b 73 05 3d 90 3f 32 bd
       -0.011639496 0.022058617 0.032580834 -0.04351765
000380 ca 95 0f 3e 6a d8 a1 bd 2e 21 1f 3e 9b 7b 81 3d
       0.14021984 -0.07902606 0.15540001 0.06322404
000390 da 6d 97 bd e2 85 e6 3c c1 e5 cc bb 79 11 18 be
       -0.073939994 0.028140012 -0.0062529747 -0.14850415
0003a0 f7 36 fa bd 8e 58 cb 3b d7 b8 80 3d 54 69 6d bd
       -0.12217515 0.006205625 0.062852554 -0.057961777
0003b0 bd 05 d2 bd 23 77 a6 bd 7e 62 c4 3d 57 9a ca 3d
       -0.10255001 -0.08128192 0.095890984 0.09892719
0003c0 f6 6e c6 3d 7d c4 4b 3c 29 a6 04 3d 71 94 a6 3c
       0.09689133 0.012436983 0.032385025 0.020334454
0003d0 30 1e b1 bd 69 bc 81 bd 71 a5 84 be 8f ef 43 be
       -0.08648336 -0.063347645 -0.25907472 -0.19134353
0003e0 ca 5d b8 bd 3a 63 cd bd 36 b1 e2 bd be cf 71 bd
       -0.09002264 -0.100286916 -0.110689566 -0.05903601
0003f0 80 f8 6f 3b 3c 79 5d bd b3 2d 9c 3d fc ba 36 3c
       0.0036616623 -0.054070696 0.07625904 0.011152979

0.bias f4 [100]
000000 b5 f5 a3 bc 43 1d ac bd f8 13 54 3d 15 e0 b0 3c
       -0.020014623 -0.08404019 0.051776856 0.021591226
000010 bc 73 86 3c 5e a1 6e bd 4a 6b 12 3d 0d 94 25 3d
       0.016412608 -0.05825936 0.03574685 0.040424395
000020 8d 75 51 bd 0b d0 8a bc 92 23 a7 bd 83 3f c4 3c
       -0.051137496 -0.016944906 -0.081610814 0.023956066
000030 fb 4d dd 3d d2 e7 98 bc 80 a8 85 bd 28 df 89 3d
       0.10805889 -0.018665228 -0.065262794 0.06732017
000040 0c 3a 44 3d 85 8d 8c 3d 53 ae c7 3c 0e 7a c0 3d
       0.04790692 0.0686293 0.024375116 0.0939828
000050 06 cd 33 3c 4e ab 98 bc 32 c9 82 bd 28 12 4a bd
       0.010974174 -0.018636372 -0.06386031 -0.04933372
000060 18 a4 49 3d c8 13 6c 3b a6 0b 01 bd 24 8a 77 bc
       0.049228758 0.0036022533 -0.03150525 -0.015108619
000070 2b 45 dc bb 74 c2 1a bc df 6d a6 3d a8 ef cf 3d
       -0.0067221127 -0.009445775 0.08126425 0.10153133
000080 e9 d5 7d 3d a0 0f ac 3d be 2f 05 3d cb 11 c4 ba
       0.06197158 0.08401418 0.032516234 -0.0014958916
000090 1a 18 92 bc c5 3a 2f 3c 3f 73 fb bc 31 29 43 bd
       -0.017833758 0.010695164 -0.030694602 -0.047646705
0000a0 70 6c 60 3d 63 b0 1a bd a4 42 3f bd 2c 0d 06 bb
       0.054790914 -0.03776587 -0.046694413 -0.0020454628
0000b0 67 93 43 bd 9e 07 9d bc 9f db 07 bb 6f d6 c8 3d
       -0.047747996 -0.019168671 -0.002073027 0.09806525
0000c0 db 84 8d 3d 48 be 62 bc ba 20 ca 3d bc 46 1a bc
       0.06910106 -0.013839312 0.09869523 -0.009416278
0000d0 e3 a2 5d 3d f0 45 5d 3d 29 57 cd bd 65 0d b4 3d
       0.05411042 0.054021776 -0.1002639 0.08791617
0000e0 c6 ff df bb 28 1f a1 3d 84 b5 df bd 39 e3 91 bd
       -0.0068359105 0.07867271 -0.10923293 -0.071234174
0000f0 07 72 f3 3d 2e 98 ac bd 6f 37 a5 3d 74 4a 2c bc
       0.11886983 -0.084274635 0.08067214 -0.010515798
000100 e3 60 22 3d 52 d4 ac bb b3 c1 b2 bb 9f 39 c6 3d
       0.03964318 -0.005274334 -0.0054552197 0.09678959
000110 e6 d3 dc bc 72 00 47 3d 7d d7 b3 bd 2b 1e 93 ba
       -0.02695651 0.04858441 -0.087813355 -0.0011224201
000120 05 8e 72 bc 0e 4f 4f bd 52 07 a3 3c 37 f6 5d 3d
       -0.014804368 -0.0506125 0.019900952 0.054189887
000130 42 24 06 3d 3c dc 2a bd 4e d7 2e bc 96 71 02 3c
       0.032749422 -0.041713938 -0.01067145 0.007961651
000140 cd 80 3d 3d d4 fa 80 3d 18 d1 47 bd 91 ce 92 3c
       0.046265412 0.06297842 -0.04878339 0.017920764
000150 a9 2b 28 3d 42 85 d3 bd 11 1c 8e 3d 92 d3 3d bd
       0.041057263 -0.10328151 0.06938947 -0.046344347
000160 13 77 28 3c 98 e8 d1 3b dc 5d 51 3d 47 ec 54 3c
       0.010282296 0.006405901 0.051114902 0.012995786
000170 82 08 80 3d ce 9a 8a 3d 29 06 50 bd 61 1e 03 3e
       0.06251623 0.06767808 -0.050787125 0.12804557
000180 8f e6 ae bd d0 e4 f1 3b d8 aa 16 bd 65 64 03 3d
       -0.08540069 0.007382013 -0.036784023 0.032078166

2.weight f4 [100, 100]
000000 1c 43 ea 3d 67 cd da bd 82 f9 29 3e c6 8a 00 3a
       0.11438581 -0.10683709 0.16599086 0.00049034914
000010 b8 e4 a0 be cc 22 c5 3d 48 39 ce 3d 2e 22 6a 3d
       -0.314245 0.096257776 0.10069519 0.057161503
000020 69 d2 c9 bd 48 5a db bc c5 eb 78 bd 7e 85 8d 3d
       -0.09854586 -0.026776448 -0.060771722 0.06910227
000030 91 8c d3 be 65 cd 41 be 9b 80 f4 3d 72 85 ce 3d
       -0.4131818 -0.18926008 0.11938592 0.100840464
000040 2c 4b 1c 3c bc 06 e2 be 45 f7 08 3d 65 db 15 be
       0.009539407 -0.44145763 0.03343894 -0.14634474
000050 9b 60 01 be 73 26 ba bd 45 57 13 3d 19 af 65 3e
       -0.12634508 -0.09089365 0.0359719 0.22430076
000060 36 47 44 bd 6e b3 38 be 0f 1d 3d 3e a0 d4 fc 3d
       -0.047919475 -0.18037197 0.18468116 0.123452425
000070 30 7e 19 3e 28 d9 17 bd eb 5a 69 3d f2 08 1c be
       0.14989543 -0.03707233 0.05697147 -0.15237787
000080 50 78 df bc e9 6e ca bb 53 76 92 bd 18 14 5e be
       -0.02727905 -0.0061777723 -0.07151475 -0.21687353
000090 c9 2a 19 3e c5 54 31 3e a5 39 1b 3e e3 0d 8c bd
       0.14957727 0.17317493 0.15158708 -0.06838586
0000a0 e0 83 f3 bc 21 e0 22 3e e8 8f 41 3e 0f 60 b6 3d
       -0.029725969 0.15905811 0.18902552 0.089050405
0000b0 da f1 3b 3d 92 a5 91 bd b7 e2 3c 3e 62 9f 08 be
       0.045884944 -0.07111658 0.1844586 -0.1334205
0000c0 cf ce 64 be 69 1e f7 bd dc 64 95 be a0 50 9f be
       -0.22344516 -0.12066347 -0.29178512 -0.311162
0000d0 35 eb 8d 3e af eb d0 bc 4f 9f d9 3d 06 a3 0b 3d
       0.2771851 -0.025503008 0.10626089 0.03409102
0000e0 5e bb 5e be c0 b7 55 3e 89 a9 a3 3d 05 14 e6 3d
       -0.21751162 0.20870876 0.07991321 0.11234287
0000f0 49 c3 93 bd 5e 95 1b 3e af 63 d0 bd 72 0d ad 3d
       -0.07214982 0.15193698 -0.10175263 0.0844983
000100 2e 01 37 3d 67 20 ba bc dd c0 87 be 33 d9 6b 3e
       0.04467886 -0.022720529 -0.2651433 0.23032074
000110 3b 2d 96 bd f2 9a 74 bb 01 21 e7 39 56 71 1a 3e
       -0.07332846 -0.00373238 0.00044084343 0.15082297
000120 bf 5c d3 3d 27 82 24 3e 6d 43 cd 3d bc b0 b8 bd
       0.10320424 0.16065274 0.10022626 -0.090180844
000130 19 1e 80 3c bc 70 90 3e 59 37 8b be d5 c8 7d be
       0.015639352 0.2821101 -0.27190664 -0.24783643
000140 2b db 9c 3c 27 b7 71 be 9c 68 ef bd d1 df 1b 3e
       0.019147476 -0.23605023 -0.116898745 0.15222098
000150 0e e6 fc bd b3 82 91 3d 01 1e 1f be 90 45 87 3d
       -0.12348567 0.07105007 -0.1553879 0.06605065
000160 16 24 1f 3e 34 03 cf 3d 7d 82 01 be 8e fd 3f be
       0.1554111 0.10108033 -0.12647434 -0.18749067
000170 74 8f 17 be e5 35 87 3e 95 63 0e 3d 3e 90 63 3e
       -0.14800817 0.26408306 0.034762938 0.22222993
000180 42 0f 55 be f7 55 bb be 5d f1 b2 bc 20 ed 9e bd
       -0.20806602 -0.36589023 -0.021843607 -0.07760072
000190 e5 56 7f bd ad aa d8 bd b3 b2 48 be 44 fe 38 be
       -0.06233873 -0.10579429 -0.19599418 -0.18065745
0001a0 16 a3 04 be ec 75 49 3c d9 27 e4 3d 57 55 c8 bd
       -0.12952837 0.012296181 0.11140413 -0.09781902
0001b0 4f 0f 36 3d f4 52 15 3d ad 3a 66 be 83 76 2e be
       0.044448193 0.036456063 -0.2248332 -0.17037396
0001c0 8e bb 12 bd 8b 26 b9 bb 06 d8 49 be 64 a8 fe bd
       -0.035823397 -0.0056503466 -0.19711313 -0.12434462
0001d0 b0 ed 24 be 52 75 c0 3d 41 24 df bd 5c ca 1a be
       -0.16106296 0.09397377 -0.10895587 -0.15116256
0001e0 73 f1 ca bc 05 c4 99 3d 27 01 3f 3e 84 48 38 be
       -0.024773335 0.07508091 0.18652783 -0.17996413
0001f0 d2 42 86 3e 90 19 4a be c3 e6 c7 3d e4 97 25 be
       0.26222855 -0.19736314 0.09760811 -0.16171223
000200 5a 57 c4 bd b9 8b ae 3d 1f e3 8d 3c 30 2d 69 3d
       -0.095869735 0.08522744 0.017320214 0.05692786
000210 58 ce 10 3e f6 8c ef 3d a2 a7 b8 bd 74 44 98 3e
       0.14141214 0.11696808 -0.090163484 0.29739726
000220 d6 d2 8d be 67 ed 17 be 70 20 8a 3e 14 6c 14 3e
       -0.27699918 -0.14836656 0.26977873 0.14494354
000230 da dc b3 3b 8b c5 06 3d dc cc 6c be 5f 60 13 3e
       0.005488974 0.032903235 -0.23125023 0.14392231
000240 f5 a9 67 be ad d3 14 3d 21 e2 f2 3d ce c1 07 3e
       -0.22623427 0.036334682 0.11859537 0.13257524
000250 ff 04 0a 3e e1 b4 1f 3e ca de d5 3d a8 a2 64 bd
       0.13478468 0.15596344 0.10442884 -0.055819184
000260 73 54 04 3e e4 50 7b be 8a a3 2d bc ec 05 b9 bd
       0.1292284 -0.24542576 -0.010598073 -0.09034333
000270 63 bf 8b 3c f1 7b 5c 3e 39 c4 d7 bd 6d 38 70 bb
       0.017059034 0.21531655 -0.105354734 -0.0036654726
000280 78 f2 f1 bd 5d b6 8b be c3 3a b1 3d 82 07 08 be
       -0.11813825 -0.2728757 0.08653786 -0.13284114
000290 99 a5 1d bb 57 94 42 3b 78 d8 13 3d da 28 03 bd
       -0.0024055003 0.0029690468 0.036095113 -0.03202138
0002a0 54 d1 ad bd c1 74 2d bd b2 47 03 3d cd f6 bd bc
       -0.08487192 -0.042347673 0.032050796 -0.023188973
0002b0 a7 de 0a be 1f 1c 80 3c 0e 92 fe 3d 56 2f 9c bc
       -0.13561498 0.01563841 0.124302015 -0.01906554
0002c0 65 a0 65 3e fd f2 9b bd 97 cc 92 3d ff 79 78 3e
       0.22424467 -0.07614706 0.07167929 0.24265288
0002d0 27 dd 9b 3e 73 d7 58 3e 1f 02 89 bc a4 71 fc bd
       0.30442163 0.21175937 -0.016724644 -0.12326363
0002e0 78 34 8e be 98 98 31 3d f0 33 91 be 9e fe 43 3e
       -0.27774405 0.043358415 -0.28359938 0.19140097
0002f0 b9 ce 01 3d ba f8 9b 3c b1 d6 c2 3c fa 88 02 bd
       0.031691287 0.0190395 0.023784013 -0.031868912
000300 b3 a6 25 bd 5e 18 0a 3d 47 6e bc bd 03 f2 9a 3e
       -0.04044218 0.033714645 -0.09200721 0.30262765
000310 7b d0 88 3c eb b8 41 3e 28 5d 26 be 10 15 65 3e
       0.016700974 0.18918197 -0.16246474 0.22371316
000320 df 22 e2 bd ce 11 b6 be ba 51 06 3e 7f 82 8d 3d
       -0.110418074 -0.3556046 0.13117114 0.06909656
000330 c2 eb 1f 3d 38 2b 8a bd 69 04 91 bd bf 06 92 bc
       0.039043196 -0.067465246 -0.07080919 -0.017825482
000340 3c e6 8e 3d 62 d0 c3 3d ea f8 f1 3d 68 ee b7 bd
       0.069775075 0.0956123 0.11815055 -0.08981019
000350 8c a9 9a 3d 2b 7e 5a bd a8 02 cc bd db 60 17 3d
       0.0755187 -0.05334298 -0.09961444 0.036957603
000360 f6 24 ad bd bf 57 58 be c6 c0 0c 3d e5 eb bd bd
       -0.08454315 -0.21127222 0.03436353 -0.09273509
000370 91 3f ee bd 01 82 04 3e 6d 5e 1d be 55 46 66 3d
       -0.11633218 0.12940218 -0.15368052 0.056219418
000380 b8 17 de bd ee 11 05 be 22 df 32 3e 93 58 bf bd
       -0.10844368 -0.12995121 0.17467931 -0.09343066
000390 b4 bf 38 3d 6f c9 3d be 77 0d 0b 3e 5d c8 7f be
       0.045104697 -0.18533872 0.13579355 -0.24978776
0003a0 54 c5 b0 bd 67 8e 52 bd e1 05 fd bd f4 0d 0f be
       -0.08631387 -0.051405337 -0.12354637 -0.13970166
0003b0 19 59 58 3e 2d 78 e1 3d ec e3 eb 3d 95 b2 14 bc
       0.21127738 0.1100925 0.11518082 -0.00907578
0003c0 44 97 85 3e 9b 57 68 3b ab 67 de 3d 64 a0 60 be
       0.2609197 0.0035452608 0.10859617 -0.21936184
0003d0 56 cf 04 be 95 05 98 be 00 55 dc bb 61 e5 56 3d
       -0.12969717 -0.2969176 -0.006724 0.052464847
0003e0 c4 9c 5d be ff 60 cc bd ef a9 80 bd dd 4d 21 be
       -0.21641833 -0.09979438 -0.06282412 -0.15752359
0003f0 bb 03 d3 3d 02 7e 4e 3c 32 d8 da 3c 2b 61 41 3d
       0.10303446 0.012603285 0.026714418 0.047211807

2.bias f4 [100]
000000 87 48 92 bb 79 cc ea bc eb a7 81 3c 6f 97 34 bc
       -0.0044642123 -0.028661953 0.01582714 -0.011022433
000010 f6 5e 24 3c 5a e3 a0 3c dc 13 a2 bd 02 53 8e 3b
       0.010032406 0.01963966 -0.07913944 0.0043433914
000020 92 5b 81 3b 8f 13 63 3d e5 96 ea bc 43 eb 56 bd
       0.0039476836 0.055438574 -0.028636405 -0.052470457
000030 c9 56 cc ba b5 c6 c0 3b c8 9b 83 3c f2 93 d4 bb
       -0.0015589829 0.0058830627 0.016065493 -0.006487363
000040 d0 46 73 3d b3 22 89 bc 21 f1 4c 3d a5 96 bc ba
       0.059393704 -0.016740179 0.050034646 -0.0014388157
000050 84 cf 29 3e 14 58 2e bc 25 ec 71 3c bf 3e 9c 3d
       0.16583067 -0.010641117 0.014765774 0.07629155
000060 f3 34 89 b9 b6 f9 92 bd 36 93 ff bc e5 96 c3 bd
       -0.00026170127 -0.07176535 -0.031198125 -0.09550265
000070 7b 3a 1a 3e 9a ea 2f 3d 42 db c0 bb 21 cf 91 bb
       0.15061371 0.042948343 -0.0058855126 -0.0044497405
000080 0e 07 16 3c bf a4 8d bd 99 3a 42 3d 96 9a 0a 3d
       0.009156955 -0.069161884 0.047419164 0.03383883
000090 46 68 7e 3d 9a 61 53 bc 63 57 54 3c c0 5e 8f 3d
       0.06211116 -0.012901688 0.012960288 0.07000494
0000a0 b0 b6 54 3d d4 df d9 bc c3 b3 41 bd 15 42 8a bc
       0.051932037 -0.026595987 -0.047290575 -0.016877213
0000b0 03 ca 3e 3d 34 e5 94 3d 11 8e 68 3d 8f 05 3f bd
       0.046579372 0.072702795 0.05677611 -0.04663616
0000c0 c0 aa d3 3d 3a 41 61 3c 68 6a 9b 3c 65 b0 31 3b
       0.10335302 0.013748461 0.018971637 0.0027113196
0000d0 1b ab 69 bd 75 e3 4a 3d 63 94 79 3d a8 0a 99 3d
       -0.057047945 0.049533326 0.06093253 0.07472736
0000e0 33 3e 9d 3d 55 06 78 3c 18 0d 39 bd a7 5e 27 3d
       0.07677879 0.015138228 -0.045178503 0.040861752
0000f0 a4 28 13 bd 9e 8c af 3c af b4 b3 3d 5c 19 e1 bc
       -0.03592743 0.021429356 0.08774697 -0.027477913
000100 e8 35 35 bd 02 bb b0 3d e1 d2 44 bc d8 95 8a 3d
       -0.044240862 0.08629419 -0.012013168 0.06766862
000110 b5 c2 a8 bc 44 35 cc bc 6d 77 92 3d 37 ef 8e 3d
       -0.020600656 -0.024927743 0.07151685 0.0697922
000120 ab 54 de bc e6 b4 80 bb 9f 8a 54 bd da ed ac bd
       -0.027139982 -0.003927815 -0.051890012 -0.08443804
000130 a6 97 67 3d 9c 67 b6 3c ba 39 a8 3d b7 a4 4f bd
       0.056541108 0.022266202 0.082141355 -0.050694194
000140 73 34 1d 3d 3f c5 e2 3c bc 79 02 3d 5c 38 bc bd
       0.038380098 0.027681945 0.031854376 -0.09190437
000150 c2 04 fd bd f4 67 6c bd 46 d3 ab 3c 28 a0 99 bc
       -0.12354423 -0.057716325 0.020974766 -0.018753126
000160 29 2b 37 bc 7e 94 b8 3d 0c 70 a1 3d 64 c5 a7 bd
       -0.011179724 0.09012698 0.07882699 -0.08191946
000170 11 fb 2e bd cb 51 58 bd 56 70 8f 3c 88 49 9d 3c
       -0.042719904 -0.05281238 0.01750962 0.019200101
000180 23 e9 57 bc 32 01 14 3d 5c 70 e5 bc a7 5b 15 3d
       -0.013178143 0.036133952 -0.028007679 0.03646436

4.weight f4 [100, 100]
000000 14 41 0d be 5a 51 f4 bd 81 84 17 3d e8 1d 8f be
       -0.13794357 -0.11929579 0.0369916 -0.27952504
000010 55 08 ac bd 5a 8e 1f bd 7a c6 aa 3d 22 6e 6d 3e
       -0.08400027 -0.038954116 0.08338638 0.23186544
000020 39 1b 84 bd d9 2a 94 bd 6a 86 21 be 2a 48 19 3e
       -0.06450505 -0.07234735 -0.15773931 0.14968935
000030 26 7c 6c bd 4d ee 1b be 3b 89 73 3d 2b b2 5c be
       -0.057735585 -0.15227623 0.059457045 -0.2155234
000040 9d fb 0a 3e 7d fb 2d be bc 7d 25 3d 5c 6f 5e be
       0.13572545 -0.16990466 0.040403113 -0.21722168
000050 f6 c2 9e bb ea 3d a2 be ae 93 d3 bb 66 d2 63 bd
       -0.0048450185 -0.31687862 -0.006456814 -0.055620573
000060 24 81 cf bd 9c 45 34 be ca ba 08 be 2e 00 e5 3d
       -0.101320535 -0.17604679 -0.13352504 0.11181675
000070 cd 72 cc 3d 9f 62 f1 bd 9a 18 ce 3d bd 7b 48 be
       0.09982834 -0.117863886 0.10063286 -0.19578452
000080 c9 9f c1 be 29 9b 24 3e af 14 44 be 30 71 59 3d
       -0.3781722 0.16074814 -0.19148515 0.05308646
000090 b2 25 c0 3d 2f 37 25 3d bf 59 5d 3c 1f 7a 2e bd
       0.0938219 0.04033583 0.013510167 -0.042596933
0000a0 4a 23 3b 3e 47 22 27 be 32 ad 25 3e 8b cf d2 3b
       0.1827518 -0.1632167 0.1617935 0.0064334325
0000b0 b5 18 3a bd a3 bb 66 bd fb 12 60 bd 23 8c 85 3d
       -0.04543372 -0.056331288 -0.0547056 0.065208696
0000c0 e0 33 f1 bd 43 9d 49 be c9 0a 20 3e 3b 50 64 be
       -0.117774725 -0.19688897 0.15629114 -0.2229623
0000d0 d7 6e df bd 83 c5 34 be c9 f4 3d bd 18 c4 b9 bd
       -0.10909813 -0.1765347 -0.046376023 -0.09070605
0000e0 72 ff 87 3d 68 89 d3 bd 2f fe a0 3d d8 92 00 be
       0.06640519 -0.103289425 0.07860982 -0.12556016
0000f0 10 47 24 3e d3 98 4a 3e 9e 68 c7 bd e3 30 48 3e
       0.16042733 0.1978486 -0.09736751 0.19549899
000100 a1 8c 7a 3d 17 00 95 3d 4c da 2d bc 67 5a e2 3d
       0.06116927 0.07275408 -0.010611128 0.11052399
000110 b9 a4 32 3d 9a 4d 00 be 6c 02 b1 3d 44 25 87 be
       0.043614123 -0.12529603 0.0864304 -0.2639562
000120 79 ff 30 3e 0f 8c 6f be be 04 90 be 3a 8b 80 be
       0.17284955 -0.23393272 -0.28128618 -0.2510622
000130 ac b8 f5 bd 20 4f 0d 3c 74 69 09 3d 94 15 b4 bd
       -0.11998114 0.008624822 0.033547834 -0.08793178
000140 16 2a 54 3e 82 49 6c 3c b6 30 05 bd 8b 4b 34 3d
       0.2071918 0.0144218225 -0.032517157 0.044017356
000150 29 8f 25 bd 50 f1 ce bd 22 99 21 be 10 04 d0 3d
       -0.04041973 -0.101046205 -0.15781072 0.10157025
000160 1a 92 c1 be a7 da 06 3e d3 a8 e9 bd c1 1d 0f be
       -0.3780678 0.13169347 -0.11409154 -0.13976194
000170 da ef 81 3e 2a aa c1 bc fc e7 88 3d 8d cb 56 3d
       0.25378305 -0.02364071 0.066848725 0.052440215
000180 19 b7 2c be 81 a5 b3 bc dd 54 be bc 86 d9 ba 3d
       -0.16866721 -0.021929504 -0.023233825 0.091235206
000190 41 ed 8f be 93 e8 96 be 6b bc f0 bd c2 b0 7b bd
       -0.28110698 -0.29474315 -0.11754688 -0.061447866
0001a0 e6 57 1c be 04 ae 56 3e 43 f4 db bd ad 4d 5c be
       -0.15267906 0.20964819 -0.107399486 -0.21514006
0001b0 2a 5a 05 3d 4b 8e c8 bd 1b 62 f7 bd 39 d3 0a 3e
       0.03255669 -0.09792765 -0.12079259 0.13557138
0001c0 e4 f5 d8 bc 12 53 d7 3d 0e 19 aa 3c f6 6a 4e 3d
       -0.026484437 0.10513891 0.0207639 0.050394975
0001d0 9c 75 31 3e 2e 77 fa bd e2 94 cc 3d c3 79 8a bc
       0.1733002 -0.12229763 0.09989335 -0.016903764
0001e0 c2 e7 2f 3d 01 d6 6c 3d 02 fc 8c be 48 66 07 be
       0.04294563 0.057821278 -0.27536017 -0.13222611
0001f0 84 52 b0 3e 9b 62 ef 3d 3d 2b 25 be a6 58 5f be
       0.34437954 0.116887294 -0.16129775 -0.2181116
000200 08 45 81 3d 76 fc ce 3e 6a 74 91 3d da 7e c3 3d
       0.06311995 0.40426987 0.07102282 0.095456794
000210 2f 94 89 3c 96 6d e7 3c ed c5 09 be 29 60 d8 3d
       0.016794292 0.028250497 -0.13454409 0.10565216
000220 82 31 6e be 86 a8 81 3d db fa b9 bd 7c 48 ca 3d
       -0.23261073 0.063309714 -0.0908105 0.098771065
000230 51 2f 22 be 90 76 c3 3d 2a 86 1f be b0 1b 14 3d
       -0.15838362 0.095440984 -0.15578523 0.036159217
000240 59 b4 b2 bd 34 3e 49 be c4 85 f5 bd ce 81 73 be
       -0.08725805 -0.19652635 -0.119884044 -0.23779985
000250 52 74 f4 bd bf 7b ee 3c 09 85 2a bd 26 cc 12 be
       -0.11936249 0.029111741 -0.04163078 -0.14335689
000260 c2 19 33 3d cf ac 6b bc 26 1d 0d 3e 6d 4f 7c bd
       0.043725736 -0.0143844625 0.1378065 -0.061599184
000270 7f dd f0 3d d5 67 bf bd a9 e4 35 be 6b 57 2f be
       0.11760997 -0.09345976 -0.17763008 -0.17123191
000280 2a d8 cb bd a8 f2 08 3d 87 c9 94 bb ca e4 0d bc
       -0.099533394 0.03343454 -0.0045406255 -0.008660505
000290 aa eb 37 3e b8 28 7c be 59 11 1c 3e ed c5 3a be
       0.17960992 -0.24624908 0.15240993 -0.18239565
0002a0 b2 fd 56 3d 44 56 9f 3d 28 dd d6 3d f4 98 09 3d
       0.052488036 0.07780126 0.10491401 0.033593133
0002b0 b9 8b 18 be 11 71 5d be de 96 ed 3d 07 76 de bc
       -0.1489705 -0.21625163 0.11601041 -0.02715589
0002c0 d6 e6 5d 3e 3e dc d2 bd 2d 2f 09 be 7b 4f f5 3c
       0.21670088 -0.10295914 -0.13396902 0.029945126
0002d0 9e fa c5 3d e9 3e d8 3c 57 b0 93 bd de b9 13 be
       0.09666942 0.026397185 -0.072113685 -0.14426371
0002e0 c0 e0 f3 3d 35 af 25 3e 58 12 bd 3d aa 83 9a bd
       0.11908102 0.16180117 0.092320144 -0.07544644
0002f0 12 82 ef bc 3f 92 29 be 3b 05 8f 3c c4 25 1d 3e
       -0.029236827 -0.16559695 0.017458549 0.15346438
000300 3e 51 93 be de 94 80 bd 42 6a 92 be d2 32 6e 3e
       -0.2877292 -0.06278394 -0.28596693 0.23261574
000310 6b 1a 48 3e 67 1b 26 3e 9d 7f 25 be c3 8e 8d bc
       0.19541328 0.1622139 -0.16161962 -0.017279988
000320 2c c3 93 bd 37 a9 37 be 88 75 6f be 41 e4 ef bd
       -0.072149605 -0.17935644 -0.23384678 -0.11713458
000330 94 ea 7e be 9e d0 22 be 52 00 64 3d a2 8d 8d 3d
       -0.24894172 -0.15899894 0.055664368 0.0691178
000340 ca 42 22 3e 50 84 01 bc 1f 13 ca bb 42 07 51 be
       0.1584579 -0.007905081 -0.00616683 -0.20412925
000350 35 3b 8d bd fb ac 1e be fc ec bd bd 9e 00 61 bd
       -0.068960585 -0.15495674 -0.09273717 -0.05493223
000360 16 d3 93 bd a0 68 12 bd 5e 4d 96 be 29 0c d8 3d
       -0.07217996 -0.03574431 -0.293559 0.10549194
000370 65 b6 18 3e 16 e8 6d bc 83 56 b0 bd 3c 11 41 bd
       0.14913328 -0.014520666 -0.08610251 -0.047135577
000380 20 e3 f5 bd 04 d4 61 be 43 d3 5f be 27 4c 3a be
       -0.12006211 -0.22053534 -0.21857934 -0.18193112
000390 dd 40 29 3e 50 98 51 be 5f f4 57 be 3b 67 2c be
       0.1652865 -0.20468259 -0.21089314 -0.16836254
0003a0 7d 59 23 3e 9d ea 30 bd d0 b4 ab bd c5 3d 1f 3d
       0.15952106 -0.043192495 -0.083840966 0.038877267
0003b0 1c fc a3 bd 59 6c c4 bd 40 ca 36 3d 8f fb 4f be
       -0.080070704 -0.09590978 0.044626474 -0.20310806
0003c0 8d 82 b5 bd 10 cb 3b be 9f 12 05 bd 50 9b 1e be
       -0.08862791 -0.18339181 -0.03248846 -0.15488935
0003d0 4c 07 c1 bd 3f 98 80 3c a2 61 96 3d 79 08 75 bc
       -0.0942522 0.015697597 0.07342841 -0.014955633
0003e0 38 82 3b 3e cd 45 fd bc 47 e4 09 3e eb c8 e9 3c
       0.18311393 -0.030917073 0.13465987 0.028538188
0003f0 e9 38 dc bd 1e 3b 2c be c2 d1 d3 bd b5 fd 08 be
       -0.10753042 -0.16819426 -0.103427425 -0.13378032

4.bias f4 [100]
000000 3b f3 98 3d aa 80 4a 3d fe 6b d7 bc 72 1b 9d bd
       0.074682675 0.04943911 -0.026296612 -0.076712504
000010 8e d7 80 3d 47 f4 51 3c df c8 76 3c b6 bc d2 3c
       0.06291114 0.012814588 0.01506254 0.02572475
000020 1f b3 5a 3e 2d 8c a8 3d 8a 43 43 bd de 41 42 3d
       0.21357392 0.082298614 -0.047671832 0.047426097
000030 81 11 8e bd b2 6f 08 3d 52 96 3c 3c a2 bd bd bd
       -0.06936932 0.033309646 0.0115104485 -0.09264685
000040 ba 55 39 bc 31 31 fd 3d 94 4d eb 3c 5c ae 58 bc
       -0.011311943 0.12362898 0.028723516 -0.013225164
000050 8b e0 ed bd 01 ef 00 bd a0 dc b7 bd 04 1a f3 bc
       -0.11615094 -0.031477932 -0.08977628 -0.029675491
000060 70 24 c7 3c ed ad 8f bb 58 c5 bf 3d 9c 0e 72 bd
       0.024309367 -0.0043847472 0.09363812 -0.059095964
000070 8c f6 eb 3c 3a 99 ba bc 3a 6f 97 3d e7 bd 50 3c
       0.028804086 -0.022778142 0.07394262 0.012740589
000080 a3 62 2e 3e b5 2c c6 bc df 88 fb 3c 82 3c da 3a
       0.17029814 -0.02419124 0.030704914 0.0016650113
000090 50 fe ae bc aa bb 4f bd 8c 65 93 bd 16 53 38 3d
       -0.0213615 -0.05071608 -0.07197103 0.045001112
0000a0 2d f8 27 bd c6 6a ee bd fa 0d 79 3d 3e 8f c1 bd
       -0.041008163 -0.11641459 0.060804345 -0.094511494
0000b0 a5 2b 9a 3d a9 86 cf 3d f7 32 f8 3c 98 2d 86 3d
       0.07527856 0.10133106 0.03029774 0.06551665
0000c0 3d cf 15 bd 57 01 ae 3c 57 4a da 3d 9a 25 e8 3d
       -0.03657459 0.021240873 0.106587104 0.11335297
0000d0 6a 90 67 3d 5b 76 2f 3d fa bb 2f 3c 0d 8f bc bd
       0.05653421 0.042837482 0.010725969 -0.09206972
0000e0 d6 82 6d bc 79 9e 81 ba 6f 8e 6c bd 93 e8 2e bd
       -0.014496526 -0.0009889147 -0.057753023 -0.04270227
0000f0 47 fd 0d 3e 79 23 14 3c e6 84 bc 3d 04 04 bd bd
       0.13866149 0.00904166 0.09205036 -0.092292815
000100 9d a1 cb 3c 2e 71 57 bc ff 7b cf 3d 4b 76 db bd
       0.024857337 -0.013149543 0.10131072 -0.10715922
000110 9b 35 ea bc 44 74 4f bd e9 fe 68 3d 18 7a bc 3d
       -0.028590014 -0.05064799 0.056883726 0.09202975
000120 02 89 10 3e fe c4 57 bc 1d 23 d2 3d cc d5 12 3d
       0.14114764 -0.013169525 0.102606036 0.035848424
000130 14 cd 17 bd 81 14 b4 bb 91 5a f5 3d b3 2d bd 3c
       -0.037060812 -0.0054956083 0.11980165 0.02309308
000140 e4 22 7b bd ba bb e9 39 31 7e 4d 3d 46 c5 b9 bc
       -0.06131257 0.0004458109 0.050169174 -0.022677075
000150 d7 3c e8 bd b9 a5 ab ba 13 4c 81 bd ff cd c6 3d
       -0.11339729 -0.0013095654 -0.06313338 0.097072594
000160 b2 b2 03 3e c0 75 23 3e 63 4d 1e 3d 0f 8d c8 3d
       0.12861136 0.15962887 0.03864802 0.0979253
000170 83 bb 4d 3d a6 f4 ba 3c 16 45 7a 3d 9a ec 15 bd
       0.050227653 0.022821736 0.06110104 -0.036602594
000180 d4 4c 8b 3a ea 61 5a 3c c8 07 9f bc a5 c0 35 bd
       0.0010627755 0.013329009 -0.01941289 -0.044373173

6.weight f4 [100, 100]
000000 99 ba 17 be 44 16 8c 3d a7 04 2a be 4f bf 6f bc
       -0.14817275 0.06840184 -0.16603337 -0.014633014
000010 a0 b2 e4 3d 71 1f 28 be ee 4a a2 3d 8d 7c 9e bc
       0.111668825 -0.16418244 0.07924448 -0.0193465
000020 94 c0 cf bd 43 9a 33 be bc 6e 0f be 27 7e 95 3d
       -0.10144153 -0.17539315 -0.14007086 0.07299452
000030 c8 c2 bd bb ab 61 23 3e 58 c3 80 3c e6 28 dc bd
       -0.005791042 0.15955226 0.015718147 -0.10749988
000040 8b 7e 5b be 0f c5 82 bb 1a 3a 01 3e 61 65 df bd
       -0.21434991 -0.0039907764 0.1261982 -0.10908008
000050 98 c8 a6 bc fb 34 1f 3b cd 8c 4d be 40 6b 14 3d
       -0.020359322 0.0024293053 -0.20073242 0.036235094
000060 f8 fc 19 3d 7b 39 a2 bc cc 88 8a be 1f 1f 41 3e
       0.037594765 -0.0198028 -0.27057493 0.18859528
000070 f4 8e 12 bd f8 32 0f be 07 38 2d 3c 86 ae b0 3d
       -0.035780862 -0.13984287 0.01057244 0.08627038
000080 9e 36 9d 3d 7d ac b2 3d c9 1c 44 bd 3a 85 8b be
       0.07676433 0.08724306 -0.047879014 -0.2725008
000090 31 da 7a 3c d0 51 55 3e da 7f 45 bd 75 0a 08 be
       0.01531081 0.2083199 -0.048217632 -0.13285239
0000a0 20 a0 59 bd 40 9c 03 be 6e e2 4c be 52 fa 02 be
       -0.053131223 -0.12852573 -0.20008251 -0.12790802
0000b0 52 bd 2f bd 3c 32 f4 bc 02 e7 4d 3e 57 48 47 3d
       -0.04290516 -0.02980911 0.20107654 0.048652973
0000c0 69 18 34 3e 5a 30 93 3d 83 32 66 3d bc 0a 27 3e
       0.17587437 0.07186957 0.056200515 0.16312689
0000d0 35 7b 44 3d 4c 12 b6 3d ad 5c 9c 3d bb b0 d3 3c
       0.047969062 0.088902086 0.07634864 0.025841108
0000e0 5f 9d 84 bc 9c 6c cf bd 70 d3 4d 3e 81 88 8b bd
       -0.016188322 -0.101281375 0.20100188 -0.068131454
0000f0 80 b9 da bd f5 ed e8 3d c1 35 c9 bd 11 2b 9b 3d
       -0.106799126 0.11373512 -0.09824706 0.07576574
000100 24 69 c7 3d de 06 0c be 2e 0c 85 3d e7 60 cf bc
       0.09736851 -0.13674495 0.06496464 -0.025314761
000110 79 78 45 3e 61 01 0a be 03 62 80 bd 83 72 c0 3d
       0.19284238 -0.13477089 -0.06268694 0.093968414
000120 f5 9e 0e be 23 b9 a3 bc 53 49 37 3e b3 d2 54 bc
       -0.13927825 -0.019985741 0.17899065 -0.012989688
000130 7e 7b 99 3b 25 33 0e be 27 c1 85 3d a8 b2 30 3e
       0.004683911 -0.13886698 0.065309815 0.17255652
000140 9b 96 c2 3e 17 61 91 be 1c 5d 10 be 52 85 17 3e
       0.38005528 -0.28394386 -0.14098018 0.14796951
000150 a3 07 7f 3d ec 5b 7e 3e b3 35 e3 3d 54 3f bd bd
       0.062263142 0.24839753 0.11094227 -0.092405945
000160 22 ac fb 3c fc 3d 04 be 3d 79 99 be ad 3e a0 3d
       0.030721728 -0.1291427 -0.2997531 0.078244545
000170 a8 e2 c7 3d 22 ff c5 bd 2a f3 21 be db af 04 be
       0.09760028 -0.09667803 -0.15815416 -0.12957709
000180 49 69 6d 3d ea f6 b3 3d bf b5 70 be b2 08 71 be
       0.057961736 0.087873295 -0.2350683 -0.23538473
000190 26 ae f3 3d bb 0e 20 be 00 46 0f 3e 40 5e e3 bc
       0.118984506 -0.15630619 0.13991547 -0.027754903
0001a0 cc 75 1e 3e 92 0f 39 bd 3f 11 1a bd 33 84 7c bc
       0.15474623 -0.045180865 -0.037614103 -0.015412378
0001b0 da f9 3c be b2 8e 40 be 25 96 1a 3e dd 16 30 be
       -0.18454686 -0.18804434 0.15096338 -0.17196222
0001c0 ed 77 49 3d 41 f2 b6 bd 09 64 15 3e c8 2e 15 3b
       0.049186636 -0.08932925 0.14588942 0.002276348
0001d0 9d 96 90 3d e9 fa 05 3e ba 5d da bd 2f 9a 13 3d
       0.07059977 0.13083996 -0.10662408 0.036035713
0001e0 b5 4d a4 bd dc d7 f9 3c 93 d1 70 bd c2 9e 59 bc
       -0.08022634 0.030498438 -0.058793616 -0.01328248
0001f0 62 e2 48 3e 4d 8d a3 3d 41 97 5f be 98 df 32 be
       0.19617608 0.07985935 -0.21835043 -0.17468107
000200 cf 50 fe bd 79 53 ec bd 64 9b ec bd 31 7c 1f 3d
       -0.12417757 -0.11539359 -0.11553076 0.038936798
000210 58 18 0c be 60 58 00 bd 95 56 c8 bd 75 55 27 be
       -0.13681161 -0.03133428 -0.09782139 -0.16341193
000220 ae fd 7e 3d cb 47 e5 bd 24 b4 44 be 84 ee 04 be
       0.062253647 -0.11195334 -0.19209343 -0.12981611
000230 0b 52 1b 3c d8 88 98 3d e6 a6 dc 3d a2 7e 35 3e
       0.00948001 0.07447976 0.10774021 0.17724088
000240 1d 48 24 be 2a 20 2a bc 55 fb 4a bc 2b 22 05 3e
       -0.16043134 -0.010383645 -0.012389024 0.13001315
000250 4d f7 30 bc 1b 5d 10 3e dc 73 a6 bd 0d aa 20 be
       -0.010801149 0.14098017 -0.08127567 -0.15689869
000260 e8 27 3c 3e 1b d6 40 bd ea c9 2e be 2b 0e df bd
       0.18374598 -0.047079187 -0.17069212 -0.10891374
000270 8a df 06 bb 27 d2 af bd 9f 69 bf bd 05 02 41 be
       -0.0020580017 -0.08585005 -0.093463175 -0.18848427
000280 64 04 0e 3e 2e fa 5e be 4e 5b c8 bd c9 2b d5 bc
       0.13868862 -0.21775123 -0.0978304 -0.026021855
000290 4d 42 a5 bd 88 81 3e be 09 4a 1f bb 5e 6f 02 3d
       -0.080692865 -0.186041 -0.0024305603 0.03184449
0002a0 ea 6a a2 bc 1c c1 37 bd f3 a8 1a 3d 35 9d e5 bd
       -0.019826371 -0.044861898 0.03775878 -0.112116255
0002b0 ea d7 49 be ef b1 12 be 24 02 99 3d cc 67 a7 bd
       -0.19711271 -0.14325689 0.074711114 -0.081740946
0002c0 70 ba 23 3b 79 03 0a 3e 81 ae 7d be 65 33 92 bd
       0.0024982952 0.13477887 -0.24773599 -0.07138709
0002d0 bb 96 6d 3b eb d6 ea bd 31 a6 cc 3d 68 cd 0d 3d
       0.0036253172 -0.114667736 0.09992636 0.03461972
0002e0 0f b9 b3 bd f0 8b 86 3d f4 4c c3 bd e6 35 09 be
       -0.087755315 0.0656966 -0.09536162 -0.13399467
0002f0 75 1d 90 bd af 97 c1 bd 37 ec b5 3d 1e d5 4f be
       -0.070368685 -0.094527595 0.08882945 -0.20296142
000300 8a 59 87 be 72 c2 21 bc 5d 2b 0b be 1b 45 19 be
       -0.264355 -0.0098730195 -0.1359076 -0.14967768
000310 ce 2a f4 3d c7 97 b8 3d c9 b1 84 3d 8f 9a c7 3d
       0.11922227 0.09013324 0.06479222 0.097462766
000320 1d 4c 3f be 98 ba 0e 3d 85 cc e9 3d ae 45 8b bc
       -0.18681379 0.03484592 0.11415962 -0.017001
000330 19 7a ba bd 00 1a 81 3d e9 14 0f be 12 c6 f2 bc
       -0.091053195 0.06303787 -0.1397282 -0.029635463
000340 b2 08 94 bd 6f f0 5b be 22 5e dd 3d ae fe 3c be
       -0.07228221 -0.21478437 0.1080897 -0.18456528
000350 7e 3e cc bd 75 34 72 3d 40 42 80 bd 4e 54 0c bd
       -0.09972857 0.05913206 -0.06262636 -0.034260087
000360 b2 4f 12 be ac d3 4e bd c0 e9 eb bd 4e ee 8f 3e
       -0.14288214 -0.050494835 -0.11519194 0.281115
000370 c1 60 0c 3d b7 55 f2 bd 55 62 74 bc 9e 56 9a bc
       0.03427196 -0.11832755 -0.014916022 -0.01884013
000380 75 a3 c1 bd 31 e9 8f 3d 19 9d a0 bd 4f ac a2 bd
       -0.09455005 0.070268996 -0.07842464 -0.079430215
000390 8f 44 01 be ff ba 9e 3d 54 d0 86 be c8 e3 4c be
       -0.1262381 0.077505104 -0.26330817 -0.20008767
0003a0 80 1d e3 bd 77 5a b8 3d 17 c9 4e be 89 c5 36 bd
       -0.11089611 0.0900163 -0.20193897 -0.044621978
0003b0 ce 76 0d 3e 14 9f 3e ba 1c ab c5 3c 5a 63 18 be
       0.13814852 -0.00072716293 0.024129443 -0.1488165
0003c0 cf b4 b6 bd 7c 43 a4 3d b9 6c 5d 3d 9d 3e 0f bd
       -0.08921205 0.08020684 0.054058764 -0.034971822
0003d0 04 d2 4d 3d 15 46 00 be b2 44 27 be 64 c5 41 be
       0.050249115 -0.12526734 -0.16334799 -0.18922955
0003e0 ad 01 8b 3d 26 05 07 3e 8e af 04 3d 52 14 2f be
       0.06787429 0.13185558 0.032393984 -0.17097595
0003f0 1c 66 3a bd 25 4a fe 3d 18 79 cf bc 93 57 10 3e
       -0.045507535 0.12416486 -0.025326297 0.14095907

6.bias f4 [100]
000000 b4 18 d9 3c 9e af ca 3a 16 f5 84 bd fc f6 05 3d
       0.026501037 0.0015463715 -0.06492059 0.032706246
000010 bb 9b 09 bc c8 5c 97 bc 32 34 1e 3e 90 df 0d 3e
       -0.008398945 -0.018476859 0.15449598 0.13854814
000020 07 af 8f 3d d2 07 67 3d ad d6 7b bd e2 d8 06 3d
       0.07015806 0.056403942 -0.061484028 0.03292168
000030 a9 56 17 3e 6e b1 7d bc 56 3d 81 3d c2 28 fc 3c
       0.14779152 -0.015484197 0.06310527 0.030781154
000040 f3 0d b5 bd 1a c6 d5 3b 81 1a 29 bd f1 57 11 3d
       -0.08840551 0.0065238597 -0.04128504 0.035484258
000050 ec 5f 96 bd 50 90 cb 3c 71 ff 02 3d e3 66 96 3d
       -0.073425144 0.024849087 0.03198189 0.07343843
000060 18 0d 92 bd 4f 39 8b bd 8c fa 3c 3d c1 0c f8 3d
       -0.07131404 -0.0679804 0.046137378 0.121118076
000070 71 eb 95 bc 68 c7 81 bd 1a 43 37 3e da dc 89 bd
       -0.018300744 -0.06336862 0.17896691 -0.06731577
000080 e1 97 d0 bd a3 75 15 3d a4 59 da ba 59 91 c0 3c
       -0.101852186 0.03648914 -0.0016658795 0.023506807
000090 45 5c 20 bd 97 42 5d bd a0 bd 5a 3d 05 83 0d 3e
       -0.039150495 -0.054018583 0.053403497 0.13819511
0000a0 83 ac 13 bd df 1c 1a bc 86 01 0b 3d 8a d3 55 3e
       -0.036053192 -0.0094062975 0.033937 0.20881477
0000b0 cc 23 24 bc e2 97 5c bd 82 9c bb bc 0b e0 0c 3c
       -0.0100183 -0.053855784 -0.022901777 0.008598338
0000c0 04 51 5e bd ce 46 05 bd 3e 3e 3e bd 22 21 ff 3c
       -0.05427648 -0.032538228 -0.046446078 0.031143729
0000d0 04 e3 00 3e 77 84 b2 3b 28 38 35 bd c8 45 df 3b
       0.125866 0.00544792 -0.044243008 0.0068137385
0000e0 f9 b1 9d bd e1 37 d3 3d 2f e9 09 3e cc da 6f 3e
       -0.07699961 0.103133924 0.13467859 0.23423308
0000f0 e7 6f 14 3e c1 be 20 bd f1 15 3b 3d d0 fa 67 3c
       0.14495812 -0.039244417 0.04567522 0.014158919
000100 9c d2 08 bc 08 9a e0 bc be 3e f7 bb 95 37 38 3d
       -0.008350994 -0.027417198 -0.0075453212 0.044974882
000110 90 50 75 3c 44 c5 52 bd 9f 53 92 bc b3 80 df bc
       0.014972821 -0.05145766 -0.01786214 -0.027283048
000120 6e b4 25 3d 82 25 a8 3d 5b 37 0a 3d e8 ca 03 3e
       0.040455274 0.08210279 0.033744197 0.12870371
000130 4c 5f bf 3c c7 4f 24 bd 1f 07 a7 bd e9 90 03 3e
       0.02336087 -0.040115144 -0.08155655 0.12848248
000140 d7 27 2b 3e c8 f6 5c bd d4 aa f9 bc 67 49 a5 bd
       0.16714416 -0.053946286 -0.030476965 -0.08070641
000150 4b 26 0a be a1 85 30 bd 74 e7 00 3c 7a 7b 95 bd
       -0.1349117 -0.04309619 0.007867683 -0.07298942
000160 da bb b5 3c 0d e8 23 bd e4 6d 12 3e d5 73 57 bd
       0.022184301 -0.040016223 0.14299732 -0.0526007
000170 af 6e 31 3d 85 d9 04 bc 9e e4 d6 bc 00 3b a6 3d
       0.043318447 -0.008108501 -0.02623206 0.08116722
000180 7a 63 98 3b 98 be 06 3e e8 09 61 3d 2b 83 3a 3d
       0.0046505304 0.13158643 0.054941088 0.045535248

8.weight f4 [100, 100]
000000 74 9f 14 3e 83 ab 2e 3d c4 5e 84 3c be 67 8b bd
       0.14513952 0.042644035 0.016158469 -0.068068966
000010 14 29 fd bd 55 ec b3 bc 3a d2 97 3c e4 9d b8 3d
       -0.12361351 -0.021963278 0.018532861 0.0901449
000020 1a 90 03 be 20 ed 28 be ff e3 18 bd 45 b2 62 be
       -0.12847939 -0.16496706 -0.03732681 -0.22138317
000030 58 fe fa 3d 93 1a 05 3e 90 01 9e 3d 14 b8 22 3d
       0.122555435 0.12998419 0.07715142 0.03972633
000040 34 ab 2e 3e 90 f2 8b bc a2 1b 3f 3d 32 b1 16 3e
       0.17057496 -0.017083436 0.046657212 0.14716032
000050 f0 75 47 be 8e 80 f1 3d 04 c2 e3 bd 09 10 ba bc
       -0.19478583 0.11792098 -0.1112099 -0.022712724
000060 6a 01 32 3e 73 75 20 bc ec 96 76 bd 59 44 53 3e
       0.17383352 -0.009793627 -0.060202524 0.20631541
000070 52 13 6c 3a ea d9 30 3e 1b 0e fc 3c be 64 5a bd
       0.00090055645 0.17270628 0.030768445 -0.05331873
000080 f1 9f f0 3d 96 87 1c be 34 2a 35 bd ca 96 46 3d
       0.117492564 -0.15286097 -0.0442297 0.048483647
000090 fb 6f e9 3d 28 a3 96 bd c1 33 a9 bd c0 46 c8 3d
       0.11398312 -0.07355338 -0.082618244 0.097791195
0000a0 61 24 77 3e e7 b6 22 3d c9 2c c6 bd 86 16 69 bc
       0.24134971 0.03972521 -0.09676511 -0.014226561
0000b0 33 16 c3 bd c0 83 a3 3c b9 1b 88 bd 4c c0 79 bd
       -0.095257185 0.019960284 -0.06645913 -0.060974404
0000c0 f0 08 4c bd d8 58 3c 3d 4a 5c 31 3e f8 23 4e be
       -0.04981321 0.045983166 0.17320362 -0.20130908
0000d0 fa 28 a0 3d f4 83 da bd 97 56 39 3e a7 80 56 3d
       0.07820316 -0.10669699 0.18099438 0.052368786
0000e0 c6 b6 65 3e 43 a8 a1 3d ab dd b6 bd 62 fc dc 3d
       0.22433004 0.078934215 -0.089289986 0.10790326
0000f0 ff 8b 49 bd 43 28 03 bd 59 e9 3a be 6d 3e 0f 3e
       -0.049205776 -0.03202082 -0.18253078 0.13988657
000100 6a 44 fc bb 94 e3 6b bd 3a 25 20 bb 34 cd 03 3e
       -0.0076985853 -0.057590082 -0.0024436251 0.12871248
000110 ca 71 43 be cf ed f6 bd 95 8c e7 bd cf aa a0 bb
       -0.19086376 -0.12057077 -0.11306111 -0.0049031745
000120 65 fb 4b be 28 19 d6 bd 09 9b f4 bd 21 83 5b be
       -0.19920118 -0.10454017 -0.11943633 -0.2143674
000130 4f 24 33 bd 4c bf fa 3d 35 a1 4d bd 17 ad e8 3d
       -0.0437358 0.12243518 -0.050202567 0.11361139
000140 00 ff 0b bd 12 ae 12 3e ba 9b 2d 3e a9 00 8d bc
       -0.034178734 0.14324215 0.16953936 -0.017212229
000150 9e b7 69 3b e4 9e 6f 3d 5f 2d ae bd dd 8f 37 be
       0.0035662423 0.05850114 -0.085047476 -0.17925973
000160 af b4 1c 3c 55 c4 c4 3d b4 19 ba 3d 1b f4 50 3b
       0.009564563 0.0960776 0.09086934 0.003188378
000170 5a 92 f4 3d 35 0f 5f 3e e2 79 84 bd 9e 6e ec bd
       0.11941977 0.21783145 -0.0646856 -0.11544536
000180 4a 06 26 bd bc d0 fc 3d 42 d2 20 be 3a 53 5f bc
       -0.04053334 0.123445004 -0.15705207 -0.013630683
000190 06 fe 7e be df 75 20 bc 89 05 05 be aa d1 42 3e
       -0.2490159 -0.009793728 -0.12990393 0.19025293
0001a0 35 7f 20 3e d1 29 f3 3c 22 0b 0d be 19 0e e4 3b
       0.15673526 0.029683026 -0.13773778 0.0069596884
0001b0 8b 6e 29 bb 5b 3a 82 bd e7 b6 0b be d3 e3 1d 3e
       -0.0025853242 -0.06358787 -0.1364399 0.1541894
0001c0 45 1e 69 bd a7 4c 24 3d ba 74 41 bd 8c 7a ed 3c
       -0.056913633 0.040112164 -0.04723046 0.028989099
0001d0 da 96 35 bd 60 d9 5f 3d 30 84 2b be cf b1 bb 3d
       -0.044333316 0.054650664 -0.16749644 0.09164774
0001e0 c8 f2 9c 3d f2 ea 0f 3b cc 8f 5d bd e4 b1 5b 3d
       0.07663494 0.0021960107 -0.054092214 0.053636447
0001f0 b6 a4 44 be 50 92 b8 bd 5d 60 f4 3d 02 ea f1 3d
       -0.19203457 -0.09012282 0.11932442 0.118122116
000200 f6 63 80 3d ae 77 f0 bd fc b9 18 3e e5 57 99 bb
       0.06269066 -0.11741577 0.14914697 -0.0046796673
000210 bb 9b 2d 3e c3 52 73 be 2c bb 31 3e 8f af 36 3e
       0.16953938 -0.2376204 0.17356557 0.17840408
000220 d1 df bc 3d 42 cd a9 3d c2 88 7a 3c b5 d3 fa 3d
       0.09222377 0.08291103 0.015291395 0.12247411
000230 fd 54 66 be 8a a7 0b 3e 87 b7 b6 bc e0 e0 53 3e
       -0.22493358 0.1363813 -0.02230431 0.20691252
000240 6b 5d ca 3d a6 a8 e5 bd 5b fe 8d bd a4 66 59 bd
       0.09881099 -0.11213808 -0.0693328 -0.0530764
000250 20 d9 ac 3d b1 82 7c bd 99 c1 6c bd 43 0f 80 bc
       0.08439851 -0.061648075 -0.057801817 -0.015632277
000260 54 5e cf 3d 89 76 99 3c 2f 2a 57 be d6 a4 26 3e
       0.101254135 0.01873328 -0.21012186 0.16273817
000270 c3 7e 2c 3d 62 21 5b 3e d8 63 3f 3e 40 02 a9 3d
       0.042113077 0.21399453 0.18690431 0.08252382
000280 a2 4e 24 3e 82 4c 81 3d 0f 6d 03 3d be dd a8 bd
       0.16045621 0.06313421 0.03208643 -0.08245419
000290 75 58 c4 bd 99 fa 0e 3e 9b 44 1e 3d 80 50 52 3d
       -0.09587184 0.13962783 0.038639646 0.051346302
0002a0 8c 40 93 3d 38 74 3d be 47 6e 6b be d0 4f 4f be
       0.07190046 -0.18501365 -0.22991286 -0.2024529
0002b0 67 0e 0b bc 1e af 13 3e b8 18 36 be d0 e1 3d 3e
       -0.0084873205 0.1442227 -0.17782867 0.18543172
0002c0 db e4 49 3c 6f 2f e5 bd 7d 8a 69 be 64 e0 d5 3d
       0.01232263 -0.11190688 -0.22806735 0.1044319
0002d0 95 e8 66 bd d4 52 c4 bd ce 73 2a 3d 4f 75 41 3d
       -0.05637415 -0.09586111 0.041614346 0.047231015
0002e0 93 0e a1 bd 85 81 3c be 6d 29 88 be 35 d8 44 be
       -0.07864108 -0.18408783 -0.26594105 -0.19223101
0002f0 53 82 b6 bd 15 dc 0b 3d 81 83 9f bc fd 2b 14 3e
       -0.08911576 0.034145433 -0.019471886 0.14469905
000300 82 67 39 be 30 16 36 3e 95 9c 66 bd 49 23 94 bd
       -0.18105891 0.17781901 -0.056301672 -0.072332926
000310 04 d5 14 3e 74 39 ac bd 8f 71 5d bd 89 42 bd bd
       0.14534384 -0.08409396 -0.054063376 -0.09241206
000320 e5 87 a9 3c f7 49 e2 bd 43 fd a8 bd 49 94 0c be
       0.020694682 -0.11049264 -0.08251431 -0.13728441
000330 8b b3 6d bc ea 6b 61 3e db 9f 10 be 30 c2 9f 3c
       -0.014508138 0.22013822 -0.1412348 0.019501776
000340 01 ff ae bc 17 25 3d 3e 01 6c f0 ba df 35 08 be
       -0.02136183 0.1847118 -0.0018342735 -0.133018
000350 fa 52 1a be 98 6c 47 3d 3f c3 24 3e 77 d0 8f bc
       -0.15070716 0.048687547 0.16090105 -0.017555458
000360 ba 77 d0 bd eb 50 de bd af 9d 81 bc 48 bb 19 3d
       -0.10179086 -0.10855278 -0.01582226 0.03753212
000370 54 34 8b bd 4b d8 79 3d bc fe 3e 3e 73 18 65 be
       -0.0679709 0.06099729 0.18651861 -0.22372608
000380 71 fc 40 be bc 6b 11 3e c6 f4 9c bd 08 c1 1e bc
       -0.18846299 0.14201254 -0.07663874 -0.009689577
000390 0f 19 78 bb d6 d3 32 be 45 96 01 bd 32 80 92 bd
       -0.0037856733 -0.17463621 -0.03163745 -0.071533576
0003a0 13 5e 9e 3d 95 67 1b be cd ab ea 3c 42 e0 f3 3d
       0.07732787 -0.15176232 0.028646374 0.11908008
0003b0 b6 ca 03 3d 78 ee 12 3e f0 43 21 be 28 fb 9f 3d
       0.032175742 0.14348781 -0.15748572 0.07811576
0003c0 89 16 3d 3e 55 4c 51 3e 3e bc 35 bd c1 cf 5d be
       0.18465628 0.20439275 -0.044368975 -0.21661283
0003d0 d2 c5 63 3d 4c 04 f9 3d b6 79 05 3e 7f bd e9 3d
       0.055608578 0.12159023 0.1303471 0.11413097
0003e0 38 ef ad bd d0 3e 2a bd 85 a7 c9 bd 9b 57 37 bd
       -0.08492893 -0.04156381 -0.09846405 -0.04476128
0003f0 3c 48 09 3d 74 de 10 bd 3b 26 18 3e 3d 48 df bd
       0.033516154 -0.035368398 0.14858334 -0.1090245

8.bias f4 [100]
000000 81 57 35 3d e5 fb 01 3e 61 e6 a6 bc 8b 50 8a 3c
       0.044272903 0.12693746 -0.020373525 0.016884109
000010 19 69 14 bc 59 a0 0a 3e c8 53 38 3d 8a 77 1f 3e
       -0.00905826 0.1353773 0.045001775 0.15572944
000020 0f f9 37 bd 10 a7 f1 bd 48 5d 2f 3d 1e c5 f5 3c
       -0.044915255 -0.11799443 0.04281357 0.03000122
000030 85 9f 08 3e 2d 06 bc 3d 83 11 df bc 7e 9b 64 bc
       0.13342102 0.091808654 -0.02723003 -0.013953088
000040 97 ee 82 bd 79 42 16 3e e6 69 b8 3d 10 97 5b bd
       -0.06393164 0.14673795 0.090045735 -0.05361086
000050 c1 65 50 bd 60 d0 69 bb d8 68 d9 3d f6 ed bc 3d
       -0.05087829 -0.003567718 0.106157005 0.09225075
000060 a0 08 16 bd 74 c7 bc 3d 0a 2c 26 3d b9 94 66 3c
       -0.03662932 0.0921773 0.040569343 0.014073544
000070 12 4b b2 3d dc 7f 8c 3c 62 39 53 3d 41 a2 c6 3c
       0.08705725 0.017150812 0.051568396 0.02424729
000080 10 b8 07 3e ee 9e 60 3c b2 e5 97 3d fa cd 04 3e
       0.13253808 0.013709767 0.07416858 0.12969199
000090 a4 82 e9 3d 82 90 9a bd a7 c6 cf bc 41 ec ef bc
       0.11401871 -0.07547094 -0.02536328 -0.02928746
0000a0 d7 6d 48 bd 09 06 e3 bc 7d 0a e1 3d 3a 1b c0 bd
       -0.048932876 -0.027712839 0.109883286 -0.09380193
0000b0 12 9b 62 bd 53 72 af 3c fa ae 2f 3e 96 8b e0 3d
       -0.055323668 0.021416819 0.17156592 0.10964124
0000c0 f3 2d 0b 3e 0f 3f ab 3d 80 25 19 bd 31 4e 73 bd
       0.13591747 0.08361637 -0.03738928 -0.05940074
0000d0 2a 41 51 3d 13 f5 c5 bd 33 f7 38 3d 52 83 fb 3d
       0.051087536 -0.09665885 0.045157623 0.12280907
0000e0 02 fe 14 3d 0c 3c c0 bd 84 b6 1a 3e 53 eb 49 bd
       0.036375053 -0.09386453 0.15108687 -0.04929669
0000f0 25 91 2d 3d de c8 55 3d d7 54 11 3e 64 c6 05 3e
       0.04237475 0.052193515 0.1419252 0.13063961
000100 14 59 a6 3d 6a 40 c2 3a 5b 77 e9 bd 10 4b c5 3c
       0.08122459 0.0014820222 -0.113997184 0.024083644
000110 9c 36 87 3d 7c 81 5e bd a1 59 09 3d d4 a2 7c bd
       0.06602213 -0.054322705 0.033532742 -0.061678723
000120 cf ce 4a 3c c6 04 25 3e e6 07 7b 3d c1 4a 2e 3e
       0.012378409 0.16115102 0.06128683 0.17020704
000130 98 a5 ac bd 67 70 95 bb 7c 04 80 3d a2 55 f1 3b
       -0.08430022 -0.0045605185 0.06250855 0.0073649446
000140 de f4 69 bd 73 6e fc 3d 70 69 ec 3d 27 24 4b bc
       -0.05711829 0.12325754 0.11543548 -0.012398756
000150 e8 df a3 3d 16 73 15 bc 5c a6 8a 3d 41 c6 bb 3d
       0.08001691 -0.009121677 0.06770012 0.09168673
000160 ca f0 45 3e 0b 6b 86 bc 61 b2 95 3d 76 b2 66 bd
       0.19330135 -0.016408464 0.07309414 -0.056322537
000170 59 78 32 bd c1 c7 84 3d 89 a9 98 3d 08 42 12 3e
       -0.043571804 0.064834125 0.07454211 0.14283001
000180 91 e7 82 3d 5c f0 fb 3c 2a f6 e5 bc ae ac 4f bc
       0.06391824 0.03075426 -0.028071482 -0.012675447
